name: "ResNet-1304"
layer {
  name: "data"
  type: "Data"
  top: "data"
  top: "label"
  include {
    phase: TRAIN
  }
  transform_param {
    mirror: true
    crop_size: 224
    mean_value: 104
    mean_value: 117
    mean_value: 123
  }
  data_param {
    source: "data/ilsvrc12_train_lmdb"
    batch_size: 32
    backend: LMDB
  }
}
layer {
  name: "data"
  type: "Data"
  top: "data"
  top: "label"
  include {
    phase: TEST
  }
  transform_param {
    mirror: false
    crop_size: 224
    mean_value: 104
    mean_value: 117
    mean_value: 123
  }
  data_param {
    source: "data/ilsvrc12_val_lmdb"
    batch_size: 1
    backend: LMDB
  }
}
layer {
  name: "conv1"
  type: "Convolution"
  bottom: "data"
  top: "conv1"
  convolution_param {
    num_output: 64
    pad: 3
    kernel_size: 7
    stride: 2
    weight_filler {
      type: "msra"
    }
    bias_term: false
  }
}
layer {
  name: "bn_conv1"
  type: "BatchNorm"
  bottom: "conv1"
  top: "conv1"
  batch_norm_param {
      use_global_stats: false
  }
}
layer {
  name: "scale_conv1"  
  type: "Scale"
  bottom: "conv1"
  top: "conv1"
  scale_param {
	bias_term: true
  }
}
 layer {
  name: "conv1_relu"
  type: "ReLU"
  bottom: "conv1"
  top: "conv1"
}
layer {
  name: "pool1"
  type: "Pooling"
  bottom: "conv1"
  top: "pool1"
  pooling_param {
    pool: MAX
    kernel_size: 3
    stride: 2
  }
}
layer {
  name: "res_1_branch1"
  type: "Convolution"
  bottom: "pool1"
  top: "res_1_branch1"
  convolution_param {
    num_output: 256
    pad: 0
    kernel_size: 1
    stride: 1
    weight_filler {
      type: "msra"
    }
    bias_term: false
  }
}
layer {
  name: "bn_1_branch1"
  type: "BatchNorm"
  bottom: "res_1_branch1"
  top: "res_1_branch1"
  batch_norm_param {
      use_global_stats: false
  }
}
layer {
  name: "scale_1_branch1"  
  type: "Scale"
  bottom: "res_1_branch1"
  top: "res_1_branch1"
  scale_param {
	bias_term: true
  }
}
 layer {
  name: "res_stage_1_1_1"
  type: "Convolution"
  bottom: "pool1"
  top: "res_stage_1_1_1"
  convolution_param {
    num_output: 64
    pad: 0
    kernel_size: 1
    stride: 1
    weight_filler {
      type: "msra"
    }
    bias_term: false
  }
}
layer {
  name: "bn_stage_1_1_1"
  type: "BatchNorm"
  bottom: "res_stage_1_1_1"
  top: "res_stage_1_1_1"
  batch_norm_param {
      use_global_stats: false
  }
}
layer {
  name: "scale_stage_1_1_1"  
  type: "Scale"
  bottom: "res_stage_1_1_1"
  top: "res_stage_1_1_1"
  scale_param {
	bias_term: true
  }
}
 layer {
  name: "res_stage_1_1_1_relu"
  type: "ReLU"
  bottom: "res_stage_1_1_1"
  top: "res_stage_1_1_1"
}
layer {
  name: "res_stage_1_1_2"
  type: "Convolution"
  bottom: "res_stage_1_1_1"
  top: "res_stage_1_1_2"
  convolution_param {
    num_output: 64
    pad: 1
    kernel_size: 3
    stride: 1
    weight_filler {
      type: "msra"
    }
    bias_term: false
  }
}
layer {
  name: "bn_stage_1_1_2"
  type: "BatchNorm"
  bottom: "res_stage_1_1_2"
  top: "res_stage_1_1_2"
  batch_norm_param {
      use_global_stats: false
  }
}
layer {
  name: "scale_stage_1_1_2"  
  type: "Scale"
  bottom: "res_stage_1_1_2"
  top: "res_stage_1_1_2"
  scale_param {
	bias_term: true
  }
}
 layer {
  name: "res_stage_1_1_2_relu"
  type: "ReLU"
  bottom: "res_stage_1_1_2"
  top: "res_stage_1_1_2"
}
layer {
  name: "res_stage_1_1_3"
  type: "Convolution"
  bottom: "res_stage_1_1_2"
  top: "res_stage_1_1_3"
  convolution_param {
    num_output: 256
    pad: 0
    kernel_size: 1
    stride: 1
    weight_filler {
      type: "msra"
    }
    bias_term: false
  }
}
layer {
  name: "bn_stage_1_1_3"
  type: "BatchNorm"
  bottom: "res_stage_1_1_3"
  top: "res_stage_1_1_3"
  batch_norm_param {
      use_global_stats: false
  }
}
layer {
  name: "scale_stage_1_1_3"  
  type: "Scale"
  bottom: "res_stage_1_1_3"
  top: "res_stage_1_1_3"
  scale_param {
	bias_term: true
  }
}
 layer {
  name: "res_1_1"
  type: "Eltwise"
  bottom: "res_1_branch1"
  bottom: "res_stage_1_1_3"
  top: "res_1_1"
  eltwise_param {
    operation: SUM
  }
}
layer {
  name: "res_1_1_relu"
  type: "ReLU"
  bottom: "res_1_1"
  top: "res_1_1"
}
layer {
  name: "res_stage_1_2_1"
  type: "Convolution"
  bottom: "res_1_1"
  top: "res_stage_1_2_1"
  convolution_param {
    num_output: 64
    pad: 0
    kernel_size: 1
    stride: 1
    weight_filler {
      type: "msra"
    }
    bias_term: false
  }
}
layer {
  name: "bn_stage_1_2_1"
  type: "BatchNorm"
  bottom: "res_stage_1_2_1"
  top: "res_stage_1_2_1"
  batch_norm_param {
      use_global_stats: false
  }
}
layer {
  name: "scale_stage_1_2_1"  
  type: "Scale"
  bottom: "res_stage_1_2_1"
  top: "res_stage_1_2_1"
  scale_param {
	bias_term: true
  }
}
 layer {
  name: "res_stage_1_2_1_relu"
  type: "ReLU"
  bottom: "res_stage_1_2_1"
  top: "res_stage_1_2_1"
}
layer {
  name: "res_stage_1_2_2"
  type: "Convolution"
  bottom: "res_stage_1_2_1"
  top: "res_stage_1_2_2"
  convolution_param {
    num_output: 64
    pad: 1
    kernel_size: 3
    stride: 1
    weight_filler {
      type: "msra"
    }
    bias_term: false
  }
}
layer {
  name: "bn_stage_1_2_2"
  type: "BatchNorm"
  bottom: "res_stage_1_2_2"
  top: "res_stage_1_2_2"
  batch_norm_param {
      use_global_stats: false
  }
}
layer {
  name: "scale_stage_1_2_2"  
  type: "Scale"
  bottom: "res_stage_1_2_2"
  top: "res_stage_1_2_2"
  scale_param {
	bias_term: true
  }
}
 layer {
  name: "res_stage_1_2_2_relu"
  type: "ReLU"
  bottom: "res_stage_1_2_2"
  top: "res_stage_1_2_2"
}
layer {
  name: "res_stage_1_2_3"
  type: "Convolution"
  bottom: "res_stage_1_2_2"
  top: "res_stage_1_2_3"
  convolution_param {
    num_output: 256
    pad: 0
    kernel_size: 1
    stride: 1
    weight_filler {
      type: "msra"
    }
    bias_term: false
  }
}
layer {
  name: "bn_stage_1_2_3"
  type: "BatchNorm"
  bottom: "res_stage_1_2_3"
  top: "res_stage_1_2_3"
  batch_norm_param {
      use_global_stats: false
  }
}
layer {
  name: "scale_stage_1_2_3"  
  type: "Scale"
  bottom: "res_stage_1_2_3"
  top: "res_stage_1_2_3"
  scale_param {
	bias_term: true
  }
}
 layer {
  name: "res_1_2"
  type: "Eltwise"
  bottom: "res_1_1"
  bottom: "res_stage_1_2_3"
  top: "res_1_2"
  eltwise_param {
    operation: SUM
  }
}
layer {
  name: "res_1_2_relu"
  type: "ReLU"
  bottom: "res_1_2"
  top: "res_1_2"
}
layer {
  name: "res_stage_1_3_1"
  type: "Convolution"
  bottom: "res_1_2"
  top: "res_stage_1_3_1"
  convolution_param {
    num_output: 64
    pad: 0
    kernel_size: 1
    stride: 1
    weight_filler {
      type: "msra"
    }
    bias_term: false
  }
}
layer {
  name: "bn_stage_1_3_1"
  type: "BatchNorm"
  bottom: "res_stage_1_3_1"
  top: "res_stage_1_3_1"
  batch_norm_param {
      use_global_stats: false
  }
}
layer {
  name: "scale_stage_1_3_1"  
  type: "Scale"
  bottom: "res_stage_1_3_1"
  top: "res_stage_1_3_1"
  scale_param {
	bias_term: true
  }
}
 layer {
  name: "res_stage_1_3_1_relu"
  type: "ReLU"
  bottom: "res_stage_1_3_1"
  top: "res_stage_1_3_1"
}
layer {
  name: "res_stage_1_3_2"
  type: "Convolution"
  bottom: "res_stage_1_3_1"
  top: "res_stage_1_3_2"
  convolution_param {
    num_output: 64
    pad: 1
    kernel_size: 3
    stride: 1
    weight_filler {
      type: "msra"
    }
    bias_term: false
  }
}
layer {
  name: "bn_stage_1_3_2"
  type: "BatchNorm"
  bottom: "res_stage_1_3_2"
  top: "res_stage_1_3_2"
  batch_norm_param {
      use_global_stats: false
  }
}
layer {
  name: "scale_stage_1_3_2"  
  type: "Scale"
  bottom: "res_stage_1_3_2"
  top: "res_stage_1_3_2"
  scale_param {
	bias_term: true
  }
}
 layer {
  name: "res_stage_1_3_2_relu"
  type: "ReLU"
  bottom: "res_stage_1_3_2"
  top: "res_stage_1_3_2"
}
layer {
  name: "res_stage_1_3_3"
  type: "Convolution"
  bottom: "res_stage_1_3_2"
  top: "res_stage_1_3_3"
  convolution_param {
    num_output: 256
    pad: 0
    kernel_size: 1
    stride: 1
    weight_filler {
      type: "msra"
    }
    bias_term: false
  }
}
layer {
  name: "bn_stage_1_3_3"
  type: "BatchNorm"
  bottom: "res_stage_1_3_3"
  top: "res_stage_1_3_3"
  batch_norm_param {
      use_global_stats: false
  }
}
layer {
  name: "scale_stage_1_3_3"  
  type: "Scale"
  bottom: "res_stage_1_3_3"
  top: "res_stage_1_3_3"
  scale_param {
	bias_term: true
  }
}
 layer {
  name: "res_1_3"
  type: "Eltwise"
  bottom: "res_1_2"
  bottom: "res_stage_1_3_3"
  top: "res_1_3"
  eltwise_param {
    operation: SUM
  }
}
layer {
  name: "res_1_3_relu"
  type: "ReLU"
  bottom: "res_1_3"
  top: "res_1_3"
}
layer {
  name: "res_2_branch1"
  type: "Convolution"
  bottom: "res_1_3"
  top: "res_2_branch1"
  convolution_param {
    num_output: 512
    pad: 0
    kernel_size: 1
    stride: 2
    weight_filler {
      type: "msra"
    }
    bias_term: false
  }
}
layer {
  name: "bn_2_branch1"
  type: "BatchNorm"
  bottom: "res_2_branch1"
  top: "res_2_branch1"
  batch_norm_param {
      use_global_stats: false
  }
}
layer {
  name: "scale_2_branch1"  
  type: "Scale"
  bottom: "res_2_branch1"
  top: "res_2_branch1"
  scale_param {
	bias_term: true
  }
}
 layer {
  name: "res_stage_2_1_1"
  type: "Convolution"
  bottom: "res_1_3"
  top: "res_stage_2_1_1"
  convolution_param {
    num_output: 128
    pad: 0
    kernel_size: 1
    stride: 2
    weight_filler {
      type: "msra"
    }
    bias_term: false
  }
}
layer {
  name: "bn_stage_2_1_1"
  type: "BatchNorm"
  bottom: "res_stage_2_1_1"
  top: "res_stage_2_1_1"
  batch_norm_param {
      use_global_stats: false
  }
}
layer {
  name: "scale_stage_2_1_1"  
  type: "Scale"
  bottom: "res_stage_2_1_1"
  top: "res_stage_2_1_1"
  scale_param {
	bias_term: true
  }
}
 layer {
  name: "res_stage_2_1_1_relu"
  type: "ReLU"
  bottom: "res_stage_2_1_1"
  top: "res_stage_2_1_1"
}
layer {
  name: "res_stage_2_1_2"
  type: "Convolution"
  bottom: "res_stage_2_1_1"
  top: "res_stage_2_1_2"
  convolution_param {
    num_output: 128
    pad: 1
    kernel_size: 3
    stride: 1
    weight_filler {
      type: "msra"
    }
    bias_term: false
  }
}
layer {
  name: "bn_stage_2_1_2"
  type: "BatchNorm"
  bottom: "res_stage_2_1_2"
  top: "res_stage_2_1_2"
  batch_norm_param {
      use_global_stats: false
  }
}
layer {
  name: "scale_stage_2_1_2"  
  type: "Scale"
  bottom: "res_stage_2_1_2"
  top: "res_stage_2_1_2"
  scale_param {
	bias_term: true
  }
}
 layer {
  name: "res_stage_2_1_2_relu"
  type: "ReLU"
  bottom: "res_stage_2_1_2"
  top: "res_stage_2_1_2"
}
layer {
  name: "res_stage_2_1_3"
  type: "Convolution"
  bottom: "res_stage_2_1_2"
  top: "res_stage_2_1_3"
  convolution_param {
    num_output: 512
    pad: 0
    kernel_size: 1
    stride: 1
    weight_filler {
      type: "msra"
    }
    bias_term: false
  }
}
layer {
  name: "bn_stage_2_1_3"
  type: "BatchNorm"
  bottom: "res_stage_2_1_3"
  top: "res_stage_2_1_3"
  batch_norm_param {
      use_global_stats: false
  }
}
layer {
  name: "scale_stage_2_1_3"  
  type: "Scale"
  bottom: "res_stage_2_1_3"
  top: "res_stage_2_1_3"
  scale_param {
	bias_term: true
  }
}
 layer {
  name: "res_2_1"
  type: "Eltwise"
  bottom: "res_2_branch1"
  bottom: "res_stage_2_1_3"
  top: "res_2_1"
  eltwise_param {
    operation: SUM
  }
}
layer {
  name: "res_2_1_relu"
  type: "ReLU"
  bottom: "res_2_1"
  top: "res_2_1"
}
layer {
  name: "res_stage_2_2_1"
  type: "Convolution"
  bottom: "res_2_1"
  top: "res_stage_2_2_1"
  convolution_param {
    num_output: 128
    pad: 0
    kernel_size: 1
    stride: 1
    weight_filler {
      type: "msra"
    }
    bias_term: false
  }
}
layer {
  name: "bn_stage_2_2_1"
  type: "BatchNorm"
  bottom: "res_stage_2_2_1"
  top: "res_stage_2_2_1"
  batch_norm_param {
      use_global_stats: false
  }
}
layer {
  name: "scale_stage_2_2_1"  
  type: "Scale"
  bottom: "res_stage_2_2_1"
  top: "res_stage_2_2_1"
  scale_param {
	bias_term: true
  }
}
 layer {
  name: "res_stage_2_2_1_relu"
  type: "ReLU"
  bottom: "res_stage_2_2_1"
  top: "res_stage_2_2_1"
}
layer {
  name: "res_stage_2_2_2"
  type: "Convolution"
  bottom: "res_stage_2_2_1"
  top: "res_stage_2_2_2"
  convolution_param {
    num_output: 128
    pad: 1
    kernel_size: 3
    stride: 1
    weight_filler {
      type: "msra"
    }
    bias_term: false
  }
}
layer {
  name: "bn_stage_2_2_2"
  type: "BatchNorm"
  bottom: "res_stage_2_2_2"
  top: "res_stage_2_2_2"
  batch_norm_param {
      use_global_stats: false
  }
}
layer {
  name: "scale_stage_2_2_2"  
  type: "Scale"
  bottom: "res_stage_2_2_2"
  top: "res_stage_2_2_2"
  scale_param {
	bias_term: true
  }
}
 layer {
  name: "res_stage_2_2_2_relu"
  type: "ReLU"
  bottom: "res_stage_2_2_2"
  top: "res_stage_2_2_2"
}
layer {
  name: "res_stage_2_2_3"
  type: "Convolution"
  bottom: "res_stage_2_2_2"
  top: "res_stage_2_2_3"
  convolution_param {
    num_output: 512
    pad: 0
    kernel_size: 1
    stride: 1
    weight_filler {
      type: "msra"
    }
    bias_term: false
  }
}
layer {
  name: "bn_stage_2_2_3"
  type: "BatchNorm"
  bottom: "res_stage_2_2_3"
  top: "res_stage_2_2_3"
  batch_norm_param {
      use_global_stats: false
  }
}
layer {
  name: "scale_stage_2_2_3"  
  type: "Scale"
  bottom: "res_stage_2_2_3"
  top: "res_stage_2_2_3"
  scale_param {
	bias_term: true
  }
}
 layer {
  name: "res_2_2"
  type: "Eltwise"
  bottom: "res_2_1"
  bottom: "res_stage_2_2_3"
  top: "res_2_2"
  eltwise_param {
    operation: SUM
  }
}
layer {
  name: "res_2_2_relu"
  type: "ReLU"
  bottom: "res_2_2"
  top: "res_2_2"
}
layer {
  name: "res_stage_2_3_1"
  type: "Convolution"
  bottom: "res_2_2"
  top: "res_stage_2_3_1"
  convolution_param {
    num_output: 128
    pad: 0
    kernel_size: 1
    stride: 1
    weight_filler {
      type: "msra"
    }
    bias_term: false
  }
}
layer {
  name: "bn_stage_2_3_1"
  type: "BatchNorm"
  bottom: "res_stage_2_3_1"
  top: "res_stage_2_3_1"
  batch_norm_param {
      use_global_stats: false
  }
}
layer {
  name: "scale_stage_2_3_1"  
  type: "Scale"
  bottom: "res_stage_2_3_1"
  top: "res_stage_2_3_1"
  scale_param {
	bias_term: true
  }
}
 layer {
  name: "res_stage_2_3_1_relu"
  type: "ReLU"
  bottom: "res_stage_2_3_1"
  top: "res_stage_2_3_1"
}
layer {
  name: "res_stage_2_3_2"
  type: "Convolution"
  bottom: "res_stage_2_3_1"
  top: "res_stage_2_3_2"
  convolution_param {
    num_output: 128
    pad: 1
    kernel_size: 3
    stride: 1
    weight_filler {
      type: "msra"
    }
    bias_term: false
  }
}
layer {
  name: "bn_stage_2_3_2"
  type: "BatchNorm"
  bottom: "res_stage_2_3_2"
  top: "res_stage_2_3_2"
  batch_norm_param {
      use_global_stats: false
  }
}
layer {
  name: "scale_stage_2_3_2"  
  type: "Scale"
  bottom: "res_stage_2_3_2"
  top: "res_stage_2_3_2"
  scale_param {
	bias_term: true
  }
}
 layer {
  name: "res_stage_2_3_2_relu"
  type: "ReLU"
  bottom: "res_stage_2_3_2"
  top: "res_stage_2_3_2"
}
layer {
  name: "res_stage_2_3_3"
  type: "Convolution"
  bottom: "res_stage_2_3_2"
  top: "res_stage_2_3_3"
  convolution_param {
    num_output: 512
    pad: 0
    kernel_size: 1
    stride: 1
    weight_filler {
      type: "msra"
    }
    bias_term: false
  }
}
layer {
  name: "bn_stage_2_3_3"
  type: "BatchNorm"
  bottom: "res_stage_2_3_3"
  top: "res_stage_2_3_3"
  batch_norm_param {
      use_global_stats: false
  }
}
layer {
  name: "scale_stage_2_3_3"  
  type: "Scale"
  bottom: "res_stage_2_3_3"
  top: "res_stage_2_3_3"
  scale_param {
	bias_term: true
  }
}
 layer {
  name: "res_2_3"
  type: "Eltwise"
  bottom: "res_2_2"
  bottom: "res_stage_2_3_3"
  top: "res_2_3"
  eltwise_param {
    operation: SUM
  }
}
layer {
  name: "res_2_3_relu"
  type: "ReLU"
  bottom: "res_2_3"
  top: "res_2_3"
}
layer {
  name: "res_stage_2_4_1"
  type: "Convolution"
  bottom: "res_2_3"
  top: "res_stage_2_4_1"
  convolution_param {
    num_output: 128
    pad: 0
    kernel_size: 1
    stride: 1
    weight_filler {
      type: "msra"
    }
    bias_term: false
  }
}
layer {
  name: "bn_stage_2_4_1"
  type: "BatchNorm"
  bottom: "res_stage_2_4_1"
  top: "res_stage_2_4_1"
  batch_norm_param {
      use_global_stats: false
  }
}
layer {
  name: "scale_stage_2_4_1"  
  type: "Scale"
  bottom: "res_stage_2_4_1"
  top: "res_stage_2_4_1"
  scale_param {
	bias_term: true
  }
}
 layer {
  name: "res_stage_2_4_1_relu"
  type: "ReLU"
  bottom: "res_stage_2_4_1"
  top: "res_stage_2_4_1"
}
layer {
  name: "res_stage_2_4_2"
  type: "Convolution"
  bottom: "res_stage_2_4_1"
  top: "res_stage_2_4_2"
  convolution_param {
    num_output: 128
    pad: 1
    kernel_size: 3
    stride: 1
    weight_filler {
      type: "msra"
    }
    bias_term: false
  }
}
layer {
  name: "bn_stage_2_4_2"
  type: "BatchNorm"
  bottom: "res_stage_2_4_2"
  top: "res_stage_2_4_2"
  batch_norm_param {
      use_global_stats: false
  }
}
layer {
  name: "scale_stage_2_4_2"  
  type: "Scale"
  bottom: "res_stage_2_4_2"
  top: "res_stage_2_4_2"
  scale_param {
	bias_term: true
  }
}
 layer {
  name: "res_stage_2_4_2_relu"
  type: "ReLU"
  bottom: "res_stage_2_4_2"
  top: "res_stage_2_4_2"
}
layer {
  name: "res_stage_2_4_3"
  type: "Convolution"
  bottom: "res_stage_2_4_2"
  top: "res_stage_2_4_3"
  convolution_param {
    num_output: 512
    pad: 0
    kernel_size: 1
    stride: 1
    weight_filler {
      type: "msra"
    }
    bias_term: false
  }
}
layer {
  name: "bn_stage_2_4_3"
  type: "BatchNorm"
  bottom: "res_stage_2_4_3"
  top: "res_stage_2_4_3"
  batch_norm_param {
      use_global_stats: false
  }
}
layer {
  name: "scale_stage_2_4_3"  
  type: "Scale"
  bottom: "res_stage_2_4_3"
  top: "res_stage_2_4_3"
  scale_param {
	bias_term: true
  }
}
 layer {
  name: "res_2_4"
  type: "Eltwise"
  bottom: "res_2_3"
  bottom: "res_stage_2_4_3"
  top: "res_2_4"
  eltwise_param {
    operation: SUM
  }
}
layer {
  name: "res_2_4_relu"
  type: "ReLU"
  bottom: "res_2_4"
  top: "res_2_4"
}
layer {
  name: "res_stage_2_5_1"
  type: "Convolution"
  bottom: "res_2_4"
  top: "res_stage_2_5_1"
  convolution_param {
    num_output: 128
    pad: 0
    kernel_size: 1
    stride: 1
    weight_filler {
      type: "msra"
    }
    bias_term: false
  }
}
layer {
  name: "bn_stage_2_5_1"
  type: "BatchNorm"
  bottom: "res_stage_2_5_1"
  top: "res_stage_2_5_1"
  batch_norm_param {
      use_global_stats: false
  }
}
layer {
  name: "scale_stage_2_5_1"  
  type: "Scale"
  bottom: "res_stage_2_5_1"
  top: "res_stage_2_5_1"
  scale_param {
	bias_term: true
  }
}
 layer {
  name: "res_stage_2_5_1_relu"
  type: "ReLU"
  bottom: "res_stage_2_5_1"
  top: "res_stage_2_5_1"
}
layer {
  name: "res_stage_2_5_2"
  type: "Convolution"
  bottom: "res_stage_2_5_1"
  top: "res_stage_2_5_2"
  convolution_param {
    num_output: 128
    pad: 1
    kernel_size: 3
    stride: 1
    weight_filler {
      type: "msra"
    }
    bias_term: false
  }
}
layer {
  name: "bn_stage_2_5_2"
  type: "BatchNorm"
  bottom: "res_stage_2_5_2"
  top: "res_stage_2_5_2"
  batch_norm_param {
      use_global_stats: false
  }
}
layer {
  name: "scale_stage_2_5_2"  
  type: "Scale"
  bottom: "res_stage_2_5_2"
  top: "res_stage_2_5_2"
  scale_param {
	bias_term: true
  }
}
 layer {
  name: "res_stage_2_5_2_relu"
  type: "ReLU"
  bottom: "res_stage_2_5_2"
  top: "res_stage_2_5_2"
}
layer {
  name: "res_stage_2_5_3"
  type: "Convolution"
  bottom: "res_stage_2_5_2"
  top: "res_stage_2_5_3"
  convolution_param {
    num_output: 512
    pad: 0
    kernel_size: 1
    stride: 1
    weight_filler {
      type: "msra"
    }
    bias_term: false
  }
}
layer {
  name: "bn_stage_2_5_3"
  type: "BatchNorm"
  bottom: "res_stage_2_5_3"
  top: "res_stage_2_5_3"
  batch_norm_param {
      use_global_stats: false
  }
}
layer {
  name: "scale_stage_2_5_3"  
  type: "Scale"
  bottom: "res_stage_2_5_3"
  top: "res_stage_2_5_3"
  scale_param {
	bias_term: true
  }
}
 layer {
  name: "res_2_5"
  type: "Eltwise"
  bottom: "res_2_4"
  bottom: "res_stage_2_5_3"
  top: "res_2_5"
  eltwise_param {
    operation: SUM
  }
}
layer {
  name: "res_2_5_relu"
  type: "ReLU"
  bottom: "res_2_5"
  top: "res_2_5"
}
layer {
  name: "res_stage_2_6_1"
  type: "Convolution"
  bottom: "res_2_5"
  top: "res_stage_2_6_1"
  convolution_param {
    num_output: 128
    pad: 0
    kernel_size: 1
    stride: 1
    weight_filler {
      type: "msra"
    }
    bias_term: false
  }
}
layer {
  name: "bn_stage_2_6_1"
  type: "BatchNorm"
  bottom: "res_stage_2_6_1"
  top: "res_stage_2_6_1"
  batch_norm_param {
      use_global_stats: false
  }
}
layer {
  name: "scale_stage_2_6_1"  
  type: "Scale"
  bottom: "res_stage_2_6_1"
  top: "res_stage_2_6_1"
  scale_param {
	bias_term: true
  }
}
 layer {
  name: "res_stage_2_6_1_relu"
  type: "ReLU"
  bottom: "res_stage_2_6_1"
  top: "res_stage_2_6_1"
}
layer {
  name: "res_stage_2_6_2"
  type: "Convolution"
  bottom: "res_stage_2_6_1"
  top: "res_stage_2_6_2"
  convolution_param {
    num_output: 128
    pad: 1
    kernel_size: 3
    stride: 1
    weight_filler {
      type: "msra"
    }
    bias_term: false
  }
}
layer {
  name: "bn_stage_2_6_2"
  type: "BatchNorm"
  bottom: "res_stage_2_6_2"
  top: "res_stage_2_6_2"
  batch_norm_param {
      use_global_stats: false
  }
}
layer {
  name: "scale_stage_2_6_2"  
  type: "Scale"
  bottom: "res_stage_2_6_2"
  top: "res_stage_2_6_2"
  scale_param {
	bias_term: true
  }
}
 layer {
  name: "res_stage_2_6_2_relu"
  type: "ReLU"
  bottom: "res_stage_2_6_2"
  top: "res_stage_2_6_2"
}
layer {
  name: "res_stage_2_6_3"
  type: "Convolution"
  bottom: "res_stage_2_6_2"
  top: "res_stage_2_6_3"
  convolution_param {
    num_output: 512
    pad: 0
    kernel_size: 1
    stride: 1
    weight_filler {
      type: "msra"
    }
    bias_term: false
  }
}
layer {
  name: "bn_stage_2_6_3"
  type: "BatchNorm"
  bottom: "res_stage_2_6_3"
  top: "res_stage_2_6_3"
  batch_norm_param {
      use_global_stats: false
  }
}
layer {
  name: "scale_stage_2_6_3"  
  type: "Scale"
  bottom: "res_stage_2_6_3"
  top: "res_stage_2_6_3"
  scale_param {
	bias_term: true
  }
}
 layer {
  name: "res_2_6"
  type: "Eltwise"
  bottom: "res_2_5"
  bottom: "res_stage_2_6_3"
  top: "res_2_6"
  eltwise_param {
    operation: SUM
  }
}
layer {
  name: "res_2_6_relu"
  type: "ReLU"
  bottom: "res_2_6"
  top: "res_2_6"
}
layer {
  name: "res_stage_2_7_1"
  type: "Convolution"
  bottom: "res_2_6"
  top: "res_stage_2_7_1"
  convolution_param {
    num_output: 128
    pad: 0
    kernel_size: 1
    stride: 1
    weight_filler {
      type: "msra"
    }
    bias_term: false
  }
}
layer {
  name: "bn_stage_2_7_1"
  type: "BatchNorm"
  bottom: "res_stage_2_7_1"
  top: "res_stage_2_7_1"
  batch_norm_param {
      use_global_stats: false
  }
}
layer {
  name: "scale_stage_2_7_1"  
  type: "Scale"
  bottom: "res_stage_2_7_1"
  top: "res_stage_2_7_1"
  scale_param {
	bias_term: true
  }
}
 layer {
  name: "res_stage_2_7_1_relu"
  type: "ReLU"
  bottom: "res_stage_2_7_1"
  top: "res_stage_2_7_1"
}
layer {
  name: "res_stage_2_7_2"
  type: "Convolution"
  bottom: "res_stage_2_7_1"
  top: "res_stage_2_7_2"
  convolution_param {
    num_output: 128
    pad: 1
    kernel_size: 3
    stride: 1
    weight_filler {
      type: "msra"
    }
    bias_term: false
  }
}
layer {
  name: "bn_stage_2_7_2"
  type: "BatchNorm"
  bottom: "res_stage_2_7_2"
  top: "res_stage_2_7_2"
  batch_norm_param {
      use_global_stats: false
  }
}
layer {
  name: "scale_stage_2_7_2"  
  type: "Scale"
  bottom: "res_stage_2_7_2"
  top: "res_stage_2_7_2"
  scale_param {
	bias_term: true
  }
}
 layer {
  name: "res_stage_2_7_2_relu"
  type: "ReLU"
  bottom: "res_stage_2_7_2"
  top: "res_stage_2_7_2"
}
layer {
  name: "res_stage_2_7_3"
  type: "Convolution"
  bottom: "res_stage_2_7_2"
  top: "res_stage_2_7_3"
  convolution_param {
    num_output: 512
    pad: 0
    kernel_size: 1
    stride: 1
    weight_filler {
      type: "msra"
    }
    bias_term: false
  }
}
layer {
  name: "bn_stage_2_7_3"
  type: "BatchNorm"
  bottom: "res_stage_2_7_3"
  top: "res_stage_2_7_3"
  batch_norm_param {
      use_global_stats: false
  }
}
layer {
  name: "scale_stage_2_7_3"  
  type: "Scale"
  bottom: "res_stage_2_7_3"
  top: "res_stage_2_7_3"
  scale_param {
	bias_term: true
  }
}
 layer {
  name: "res_2_7"
  type: "Eltwise"
  bottom: "res_2_6"
  bottom: "res_stage_2_7_3"
  top: "res_2_7"
  eltwise_param {
    operation: SUM
  }
}
layer {
  name: "res_2_7_relu"
  type: "ReLU"
  bottom: "res_2_7"
  top: "res_2_7"
}
layer {
  name: "res_stage_2_8_1"
  type: "Convolution"
  bottom: "res_2_7"
  top: "res_stage_2_8_1"
  convolution_param {
    num_output: 128
    pad: 0
    kernel_size: 1
    stride: 1
    weight_filler {
      type: "msra"
    }
    bias_term: false
  }
}
layer {
  name: "bn_stage_2_8_1"
  type: "BatchNorm"
  bottom: "res_stage_2_8_1"
  top: "res_stage_2_8_1"
  batch_norm_param {
      use_global_stats: false
  }
}
layer {
  name: "scale_stage_2_8_1"  
  type: "Scale"
  bottom: "res_stage_2_8_1"
  top: "res_stage_2_8_1"
  scale_param {
	bias_term: true
  }
}
 layer {
  name: "res_stage_2_8_1_relu"
  type: "ReLU"
  bottom: "res_stage_2_8_1"
  top: "res_stage_2_8_1"
}
layer {
  name: "res_stage_2_8_2"
  type: "Convolution"
  bottom: "res_stage_2_8_1"
  top: "res_stage_2_8_2"
  convolution_param {
    num_output: 128
    pad: 1
    kernel_size: 3
    stride: 1
    weight_filler {
      type: "msra"
    }
    bias_term: false
  }
}
layer {
  name: "bn_stage_2_8_2"
  type: "BatchNorm"
  bottom: "res_stage_2_8_2"
  top: "res_stage_2_8_2"
  batch_norm_param {
      use_global_stats: false
  }
}
layer {
  name: "scale_stage_2_8_2"  
  type: "Scale"
  bottom: "res_stage_2_8_2"
  top: "res_stage_2_8_2"
  scale_param {
	bias_term: true
  }
}
 layer {
  name: "res_stage_2_8_2_relu"
  type: "ReLU"
  bottom: "res_stage_2_8_2"
  top: "res_stage_2_8_2"
}
layer {
  name: "res_stage_2_8_3"
  type: "Convolution"
  bottom: "res_stage_2_8_2"
  top: "res_stage_2_8_3"
  convolution_param {
    num_output: 512
    pad: 0
    kernel_size: 1
    stride: 1
    weight_filler {
      type: "msra"
    }
    bias_term: false
  }
}
layer {
  name: "bn_stage_2_8_3"
  type: "BatchNorm"
  bottom: "res_stage_2_8_3"
  top: "res_stage_2_8_3"
  batch_norm_param {
      use_global_stats: false
  }
}
layer {
  name: "scale_stage_2_8_3"  
  type: "Scale"
  bottom: "res_stage_2_8_3"
  top: "res_stage_2_8_3"
  scale_param {
	bias_term: true
  }
}
 layer {
  name: "res_2_8"
  type: "Eltwise"
  bottom: "res_2_7"
  bottom: "res_stage_2_8_3"
  top: "res_2_8"
  eltwise_param {
    operation: SUM
  }
}
layer {
  name: "res_2_8_relu"
  type: "ReLU"
  bottom: "res_2_8"
  top: "res_2_8"
}
layer {
  name: "res_stage_2_9_1"
  type: "Convolution"
  bottom: "res_2_8"
  top: "res_stage_2_9_1"
  convolution_param {
    num_output: 128
    pad: 0
    kernel_size: 1
    stride: 1
    weight_filler {
      type: "msra"
    }
    bias_term: false
  }
}
layer {
  name: "bn_stage_2_9_1"
  type: "BatchNorm"
  bottom: "res_stage_2_9_1"
  top: "res_stage_2_9_1"
  batch_norm_param {
      use_global_stats: false
  }
}
layer {
  name: "scale_stage_2_9_1"  
  type: "Scale"
  bottom: "res_stage_2_9_1"
  top: "res_stage_2_9_1"
  scale_param {
	bias_term: true
  }
}
 layer {
  name: "res_stage_2_9_1_relu"
  type: "ReLU"
  bottom: "res_stage_2_9_1"
  top: "res_stage_2_9_1"
}
layer {
  name: "res_stage_2_9_2"
  type: "Convolution"
  bottom: "res_stage_2_9_1"
  top: "res_stage_2_9_2"
  convolution_param {
    num_output: 128
    pad: 1
    kernel_size: 3
    stride: 1
    weight_filler {
      type: "msra"
    }
    bias_term: false
  }
}
layer {
  name: "bn_stage_2_9_2"
  type: "BatchNorm"
  bottom: "res_stage_2_9_2"
  top: "res_stage_2_9_2"
  batch_norm_param {
      use_global_stats: false
  }
}
layer {
  name: "scale_stage_2_9_2"  
  type: "Scale"
  bottom: "res_stage_2_9_2"
  top: "res_stage_2_9_2"
  scale_param {
	bias_term: true
  }
}
 layer {
  name: "res_stage_2_9_2_relu"
  type: "ReLU"
  bottom: "res_stage_2_9_2"
  top: "res_stage_2_9_2"
}
layer {
  name: "res_stage_2_9_3"
  type: "Convolution"
  bottom: "res_stage_2_9_2"
  top: "res_stage_2_9_3"
  convolution_param {
    num_output: 512
    pad: 0
    kernel_size: 1
    stride: 1
    weight_filler {
      type: "msra"
    }
    bias_term: false
  }
}
layer {
  name: "bn_stage_2_9_3"
  type: "BatchNorm"
  bottom: "res_stage_2_9_3"
  top: "res_stage_2_9_3"
  batch_norm_param {
      use_global_stats: false
  }
}
layer {
  name: "scale_stage_2_9_3"  
  type: "Scale"
  bottom: "res_stage_2_9_3"
  top: "res_stage_2_9_3"
  scale_param {
	bias_term: true
  }
}
 layer {
  name: "res_2_9"
  type: "Eltwise"
  bottom: "res_2_8"
  bottom: "res_stage_2_9_3"
  top: "res_2_9"
  eltwise_param {
    operation: SUM
  }
}
layer {
  name: "res_2_9_relu"
  type: "ReLU"
  bottom: "res_2_9"
  top: "res_2_9"
}
layer {
  name: "res_stage_2_10_1"
  type: "Convolution"
  bottom: "res_2_9"
  top: "res_stage_2_10_1"
  convolution_param {
    num_output: 128
    pad: 0
    kernel_size: 1
    stride: 1
    weight_filler {
      type: "msra"
    }
    bias_term: false
  }
}
layer {
  name: "bn_stage_2_10_1"
  type: "BatchNorm"
  bottom: "res_stage_2_10_1"
  top: "res_stage_2_10_1"
  batch_norm_param {
      use_global_stats: false
  }
}
layer {
  name: "scale_stage_2_10_1"  
  type: "Scale"
  bottom: "res_stage_2_10_1"
  top: "res_stage_2_10_1"
  scale_param {
	bias_term: true
  }
}
 layer {
  name: "res_stage_2_10_1_relu"
  type: "ReLU"
  bottom: "res_stage_2_10_1"
  top: "res_stage_2_10_1"
}
layer {
  name: "res_stage_2_10_2"
  type: "Convolution"
  bottom: "res_stage_2_10_1"
  top: "res_stage_2_10_2"
  convolution_param {
    num_output: 128
    pad: 1
    kernel_size: 3
    stride: 1
    weight_filler {
      type: "msra"
    }
    bias_term: false
  }
}
layer {
  name: "bn_stage_2_10_2"
  type: "BatchNorm"
  bottom: "res_stage_2_10_2"
  top: "res_stage_2_10_2"
  batch_norm_param {
      use_global_stats: false
  }
}
layer {
  name: "scale_stage_2_10_2"  
  type: "Scale"
  bottom: "res_stage_2_10_2"
  top: "res_stage_2_10_2"
  scale_param {
	bias_term: true
  }
}
 layer {
  name: "res_stage_2_10_2_relu"
  type: "ReLU"
  bottom: "res_stage_2_10_2"
  top: "res_stage_2_10_2"
}
layer {
  name: "res_stage_2_10_3"
  type: "Convolution"
  bottom: "res_stage_2_10_2"
  top: "res_stage_2_10_3"
  convolution_param {
    num_output: 512
    pad: 0
    kernel_size: 1
    stride: 1
    weight_filler {
      type: "msra"
    }
    bias_term: false
  }
}
layer {
  name: "bn_stage_2_10_3"
  type: "BatchNorm"
  bottom: "res_stage_2_10_3"
  top: "res_stage_2_10_3"
  batch_norm_param {
      use_global_stats: false
  }
}
layer {
  name: "scale_stage_2_10_3"  
  type: "Scale"
  bottom: "res_stage_2_10_3"
  top: "res_stage_2_10_3"
  scale_param {
	bias_term: true
  }
}
 layer {
  name: "res_2_10"
  type: "Eltwise"
  bottom: "res_2_9"
  bottom: "res_stage_2_10_3"
  top: "res_2_10"
  eltwise_param {
    operation: SUM
  }
}
layer {
  name: "res_2_10_relu"
  type: "ReLU"
  bottom: "res_2_10"
  top: "res_2_10"
}
layer {
  name: "res_stage_2_11_1"
  type: "Convolution"
  bottom: "res_2_10"
  top: "res_stage_2_11_1"
  convolution_param {
    num_output: 128
    pad: 0
    kernel_size: 1
    stride: 1
    weight_filler {
      type: "msra"
    }
    bias_term: false
  }
}
layer {
  name: "bn_stage_2_11_1"
  type: "BatchNorm"
  bottom: "res_stage_2_11_1"
  top: "res_stage_2_11_1"
  batch_norm_param {
      use_global_stats: false
  }
}
layer {
  name: "scale_stage_2_11_1"  
  type: "Scale"
  bottom: "res_stage_2_11_1"
  top: "res_stage_2_11_1"
  scale_param {
	bias_term: true
  }
}
 layer {
  name: "res_stage_2_11_1_relu"
  type: "ReLU"
  bottom: "res_stage_2_11_1"
  top: "res_stage_2_11_1"
}
layer {
  name: "res_stage_2_11_2"
  type: "Convolution"
  bottom: "res_stage_2_11_1"
  top: "res_stage_2_11_2"
  convolution_param {
    num_output: 128
    pad: 1
    kernel_size: 3
    stride: 1
    weight_filler {
      type: "msra"
    }
    bias_term: false
  }
}
layer {
  name: "bn_stage_2_11_2"
  type: "BatchNorm"
  bottom: "res_stage_2_11_2"
  top: "res_stage_2_11_2"
  batch_norm_param {
      use_global_stats: false
  }
}
layer {
  name: "scale_stage_2_11_2"  
  type: "Scale"
  bottom: "res_stage_2_11_2"
  top: "res_stage_2_11_2"
  scale_param {
	bias_term: true
  }
}
 layer {
  name: "res_stage_2_11_2_relu"
  type: "ReLU"
  bottom: "res_stage_2_11_2"
  top: "res_stage_2_11_2"
}
layer {
  name: "res_stage_2_11_3"
  type: "Convolution"
  bottom: "res_stage_2_11_2"
  top: "res_stage_2_11_3"
  convolution_param {
    num_output: 512
    pad: 0
    kernel_size: 1
    stride: 1
    weight_filler {
      type: "msra"
    }
    bias_term: false
  }
}
layer {
  name: "bn_stage_2_11_3"
  type: "BatchNorm"
  bottom: "res_stage_2_11_3"
  top: "res_stage_2_11_3"
  batch_norm_param {
      use_global_stats: false
  }
}
layer {
  name: "scale_stage_2_11_3"  
  type: "Scale"
  bottom: "res_stage_2_11_3"
  top: "res_stage_2_11_3"
  scale_param {
	bias_term: true
  }
}
 layer {
  name: "res_2_11"
  type: "Eltwise"
  bottom: "res_2_10"
  bottom: "res_stage_2_11_3"
  top: "res_2_11"
  eltwise_param {
    operation: SUM
  }
}
layer {
  name: "res_2_11_relu"
  type: "ReLU"
  bottom: "res_2_11"
  top: "res_2_11"
}
layer {
  name: "res_stage_2_12_1"
  type: "Convolution"
  bottom: "res_2_11"
  top: "res_stage_2_12_1"
  convolution_param {
    num_output: 128
    pad: 0
    kernel_size: 1
    stride: 1
    weight_filler {
      type: "msra"
    }
    bias_term: false
  }
}
layer {
  name: "bn_stage_2_12_1"
  type: "BatchNorm"
  bottom: "res_stage_2_12_1"
  top: "res_stage_2_12_1"
  batch_norm_param {
      use_global_stats: false
  }
}
layer {
  name: "scale_stage_2_12_1"  
  type: "Scale"
  bottom: "res_stage_2_12_1"
  top: "res_stage_2_12_1"
  scale_param {
	bias_term: true
  }
}
 layer {
  name: "res_stage_2_12_1_relu"
  type: "ReLU"
  bottom: "res_stage_2_12_1"
  top: "res_stage_2_12_1"
}
layer {
  name: "res_stage_2_12_2"
  type: "Convolution"
  bottom: "res_stage_2_12_1"
  top: "res_stage_2_12_2"
  convolution_param {
    num_output: 128
    pad: 1
    kernel_size: 3
    stride: 1
    weight_filler {
      type: "msra"
    }
    bias_term: false
  }
}
layer {
  name: "bn_stage_2_12_2"
  type: "BatchNorm"
  bottom: "res_stage_2_12_2"
  top: "res_stage_2_12_2"
  batch_norm_param {
      use_global_stats: false
  }
}
layer {
  name: "scale_stage_2_12_2"  
  type: "Scale"
  bottom: "res_stage_2_12_2"
  top: "res_stage_2_12_2"
  scale_param {
	bias_term: true
  }
}
 layer {
  name: "res_stage_2_12_2_relu"
  type: "ReLU"
  bottom: "res_stage_2_12_2"
  top: "res_stage_2_12_2"
}
layer {
  name: "res_stage_2_12_3"
  type: "Convolution"
  bottom: "res_stage_2_12_2"
  top: "res_stage_2_12_3"
  convolution_param {
    num_output: 512
    pad: 0
    kernel_size: 1
    stride: 1
    weight_filler {
      type: "msra"
    }
    bias_term: false
  }
}
layer {
  name: "bn_stage_2_12_3"
  type: "BatchNorm"
  bottom: "res_stage_2_12_3"
  top: "res_stage_2_12_3"
  batch_norm_param {
      use_global_stats: false
  }
}
layer {
  name: "scale_stage_2_12_3"  
  type: "Scale"
  bottom: "res_stage_2_12_3"
  top: "res_stage_2_12_3"
  scale_param {
	bias_term: true
  }
}
 layer {
  name: "res_2_12"
  type: "Eltwise"
  bottom: "res_2_11"
  bottom: "res_stage_2_12_3"
  top: "res_2_12"
  eltwise_param {
    operation: SUM
  }
}
layer {
  name: "res_2_12_relu"
  type: "ReLU"
  bottom: "res_2_12"
  top: "res_2_12"
}
layer {
  name: "res_stage_2_13_1"
  type: "Convolution"
  bottom: "res_2_12"
  top: "res_stage_2_13_1"
  convolution_param {
    num_output: 128
    pad: 0
    kernel_size: 1
    stride: 1
    weight_filler {
      type: "msra"
    }
    bias_term: false
  }
}
layer {
  name: "bn_stage_2_13_1"
  type: "BatchNorm"
  bottom: "res_stage_2_13_1"
  top: "res_stage_2_13_1"
  batch_norm_param {
      use_global_stats: false
  }
}
layer {
  name: "scale_stage_2_13_1"  
  type: "Scale"
  bottom: "res_stage_2_13_1"
  top: "res_stage_2_13_1"
  scale_param {
	bias_term: true
  }
}
 layer {
  name: "res_stage_2_13_1_relu"
  type: "ReLU"
  bottom: "res_stage_2_13_1"
  top: "res_stage_2_13_1"
}
layer {
  name: "res_stage_2_13_2"
  type: "Convolution"
  bottom: "res_stage_2_13_1"
  top: "res_stage_2_13_2"
  convolution_param {
    num_output: 128
    pad: 1
    kernel_size: 3
    stride: 1
    weight_filler {
      type: "msra"
    }
    bias_term: false
  }
}
layer {
  name: "bn_stage_2_13_2"
  type: "BatchNorm"
  bottom: "res_stage_2_13_2"
  top: "res_stage_2_13_2"
  batch_norm_param {
      use_global_stats: false
  }
}
layer {
  name: "scale_stage_2_13_2"  
  type: "Scale"
  bottom: "res_stage_2_13_2"
  top: "res_stage_2_13_2"
  scale_param {
	bias_term: true
  }
}
 layer {
  name: "res_stage_2_13_2_relu"
  type: "ReLU"
  bottom: "res_stage_2_13_2"
  top: "res_stage_2_13_2"
}
layer {
  name: "res_stage_2_13_3"
  type: "Convolution"
  bottom: "res_stage_2_13_2"
  top: "res_stage_2_13_3"
  convolution_param {
    num_output: 512
    pad: 0
    kernel_size: 1
    stride: 1
    weight_filler {
      type: "msra"
    }
    bias_term: false
  }
}
layer {
  name: "bn_stage_2_13_3"
  type: "BatchNorm"
  bottom: "res_stage_2_13_3"
  top: "res_stage_2_13_3"
  batch_norm_param {
      use_global_stats: false
  }
}
layer {
  name: "scale_stage_2_13_3"  
  type: "Scale"
  bottom: "res_stage_2_13_3"
  top: "res_stage_2_13_3"
  scale_param {
	bias_term: true
  }
}
 layer {
  name: "res_2_13"
  type: "Eltwise"
  bottom: "res_2_12"
  bottom: "res_stage_2_13_3"
  top: "res_2_13"
  eltwise_param {
    operation: SUM
  }
}
layer {
  name: "res_2_13_relu"
  type: "ReLU"
  bottom: "res_2_13"
  top: "res_2_13"
}
layer {
  name: "res_stage_2_14_1"
  type: "Convolution"
  bottom: "res_2_13"
  top: "res_stage_2_14_1"
  convolution_param {
    num_output: 128
    pad: 0
    kernel_size: 1
    stride: 1
    weight_filler {
      type: "msra"
    }
    bias_term: false
  }
}
layer {
  name: "bn_stage_2_14_1"
  type: "BatchNorm"
  bottom: "res_stage_2_14_1"
  top: "res_stage_2_14_1"
  batch_norm_param {
      use_global_stats: false
  }
}
layer {
  name: "scale_stage_2_14_1"  
  type: "Scale"
  bottom: "res_stage_2_14_1"
  top: "res_stage_2_14_1"
  scale_param {
	bias_term: true
  }
}
 layer {
  name: "res_stage_2_14_1_relu"
  type: "ReLU"
  bottom: "res_stage_2_14_1"
  top: "res_stage_2_14_1"
}
layer {
  name: "res_stage_2_14_2"
  type: "Convolution"
  bottom: "res_stage_2_14_1"
  top: "res_stage_2_14_2"
  convolution_param {
    num_output: 128
    pad: 1
    kernel_size: 3
    stride: 1
    weight_filler {
      type: "msra"
    }
    bias_term: false
  }
}
layer {
  name: "bn_stage_2_14_2"
  type: "BatchNorm"
  bottom: "res_stage_2_14_2"
  top: "res_stage_2_14_2"
  batch_norm_param {
      use_global_stats: false
  }
}
layer {
  name: "scale_stage_2_14_2"  
  type: "Scale"
  bottom: "res_stage_2_14_2"
  top: "res_stage_2_14_2"
  scale_param {
	bias_term: true
  }
}
 layer {
  name: "res_stage_2_14_2_relu"
  type: "ReLU"
  bottom: "res_stage_2_14_2"
  top: "res_stage_2_14_2"
}
layer {
  name: "res_stage_2_14_3"
  type: "Convolution"
  bottom: "res_stage_2_14_2"
  top: "res_stage_2_14_3"
  convolution_param {
    num_output: 512
    pad: 0
    kernel_size: 1
    stride: 1
    weight_filler {
      type: "msra"
    }
    bias_term: false
  }
}
layer {
  name: "bn_stage_2_14_3"
  type: "BatchNorm"
  bottom: "res_stage_2_14_3"
  top: "res_stage_2_14_3"
  batch_norm_param {
      use_global_stats: false
  }
}
layer {
  name: "scale_stage_2_14_3"  
  type: "Scale"
  bottom: "res_stage_2_14_3"
  top: "res_stage_2_14_3"
  scale_param {
	bias_term: true
  }
}
 layer {
  name: "res_2_14"
  type: "Eltwise"
  bottom: "res_2_13"
  bottom: "res_stage_2_14_3"
  top: "res_2_14"
  eltwise_param {
    operation: SUM
  }
}
layer {
  name: "res_2_14_relu"
  type: "ReLU"
  bottom: "res_2_14"
  top: "res_2_14"
}
layer {
  name: "res_stage_2_15_1"
  type: "Convolution"
  bottom: "res_2_14"
  top: "res_stage_2_15_1"
  convolution_param {
    num_output: 128
    pad: 0
    kernel_size: 1
    stride: 1
    weight_filler {
      type: "msra"
    }
    bias_term: false
  }
}
layer {
  name: "bn_stage_2_15_1"
  type: "BatchNorm"
  bottom: "res_stage_2_15_1"
  top: "res_stage_2_15_1"
  batch_norm_param {
      use_global_stats: false
  }
}
layer {
  name: "scale_stage_2_15_1"  
  type: "Scale"
  bottom: "res_stage_2_15_1"
  top: "res_stage_2_15_1"
  scale_param {
	bias_term: true
  }
}
 layer {
  name: "res_stage_2_15_1_relu"
  type: "ReLU"
  bottom: "res_stage_2_15_1"
  top: "res_stage_2_15_1"
}
layer {
  name: "res_stage_2_15_2"
  type: "Convolution"
  bottom: "res_stage_2_15_1"
  top: "res_stage_2_15_2"
  convolution_param {
    num_output: 128
    pad: 1
    kernel_size: 3
    stride: 1
    weight_filler {
      type: "msra"
    }
    bias_term: false
  }
}
layer {
  name: "bn_stage_2_15_2"
  type: "BatchNorm"
  bottom: "res_stage_2_15_2"
  top: "res_stage_2_15_2"
  batch_norm_param {
      use_global_stats: false
  }
}
layer {
  name: "scale_stage_2_15_2"  
  type: "Scale"
  bottom: "res_stage_2_15_2"
  top: "res_stage_2_15_2"
  scale_param {
	bias_term: true
  }
}
 layer {
  name: "res_stage_2_15_2_relu"
  type: "ReLU"
  bottom: "res_stage_2_15_2"
  top: "res_stage_2_15_2"
}
layer {
  name: "res_stage_2_15_3"
  type: "Convolution"
  bottom: "res_stage_2_15_2"
  top: "res_stage_2_15_3"
  convolution_param {
    num_output: 512
    pad: 0
    kernel_size: 1
    stride: 1
    weight_filler {
      type: "msra"
    }
    bias_term: false
  }
}
layer {
  name: "bn_stage_2_15_3"
  type: "BatchNorm"
  bottom: "res_stage_2_15_3"
  top: "res_stage_2_15_3"
  batch_norm_param {
      use_global_stats: false
  }
}
layer {
  name: "scale_stage_2_15_3"  
  type: "Scale"
  bottom: "res_stage_2_15_3"
  top: "res_stage_2_15_3"
  scale_param {
	bias_term: true
  }
}
 layer {
  name: "res_2_15"
  type: "Eltwise"
  bottom: "res_2_14"
  bottom: "res_stage_2_15_3"
  top: "res_2_15"
  eltwise_param {
    operation: SUM
  }
}
layer {
  name: "res_2_15_relu"
  type: "ReLU"
  bottom: "res_2_15"
  top: "res_2_15"
}
layer {
  name: "res_stage_2_16_1"
  type: "Convolution"
  bottom: "res_2_15"
  top: "res_stage_2_16_1"
  convolution_param {
    num_output: 128
    pad: 0
    kernel_size: 1
    stride: 1
    weight_filler {
      type: "msra"
    }
    bias_term: false
  }
}
layer {
  name: "bn_stage_2_16_1"
  type: "BatchNorm"
  bottom: "res_stage_2_16_1"
  top: "res_stage_2_16_1"
  batch_norm_param {
      use_global_stats: false
  }
}
layer {
  name: "scale_stage_2_16_1"  
  type: "Scale"
  bottom: "res_stage_2_16_1"
  top: "res_stage_2_16_1"
  scale_param {
	bias_term: true
  }
}
 layer {
  name: "res_stage_2_16_1_relu"
  type: "ReLU"
  bottom: "res_stage_2_16_1"
  top: "res_stage_2_16_1"
}
layer {
  name: "res_stage_2_16_2"
  type: "Convolution"
  bottom: "res_stage_2_16_1"
  top: "res_stage_2_16_2"
  convolution_param {
    num_output: 128
    pad: 1
    kernel_size: 3
    stride: 1
    weight_filler {
      type: "msra"
    }
    bias_term: false
  }
}
layer {
  name: "bn_stage_2_16_2"
  type: "BatchNorm"
  bottom: "res_stage_2_16_2"
  top: "res_stage_2_16_2"
  batch_norm_param {
      use_global_stats: false
  }
}
layer {
  name: "scale_stage_2_16_2"  
  type: "Scale"
  bottom: "res_stage_2_16_2"
  top: "res_stage_2_16_2"
  scale_param {
	bias_term: true
  }
}
 layer {
  name: "res_stage_2_16_2_relu"
  type: "ReLU"
  bottom: "res_stage_2_16_2"
  top: "res_stage_2_16_2"
}
layer {
  name: "res_stage_2_16_3"
  type: "Convolution"
  bottom: "res_stage_2_16_2"
  top: "res_stage_2_16_3"
  convolution_param {
    num_output: 512
    pad: 0
    kernel_size: 1
    stride: 1
    weight_filler {
      type: "msra"
    }
    bias_term: false
  }
}
layer {
  name: "bn_stage_2_16_3"
  type: "BatchNorm"
  bottom: "res_stage_2_16_3"
  top: "res_stage_2_16_3"
  batch_norm_param {
      use_global_stats: false
  }
}
layer {
  name: "scale_stage_2_16_3"  
  type: "Scale"
  bottom: "res_stage_2_16_3"
  top: "res_stage_2_16_3"
  scale_param {
	bias_term: true
  }
}
 layer {
  name: "res_2_16"
  type: "Eltwise"
  bottom: "res_2_15"
  bottom: "res_stage_2_16_3"
  top: "res_2_16"
  eltwise_param {
    operation: SUM
  }
}
layer {
  name: "res_2_16_relu"
  type: "ReLU"
  bottom: "res_2_16"
  top: "res_2_16"
}
layer {
  name: "res_stage_2_17_1"
  type: "Convolution"
  bottom: "res_2_16"
  top: "res_stage_2_17_1"
  convolution_param {
    num_output: 128
    pad: 0
    kernel_size: 1
    stride: 1
    weight_filler {
      type: "msra"
    }
    bias_term: false
  }
}
layer {
  name: "bn_stage_2_17_1"
  type: "BatchNorm"
  bottom: "res_stage_2_17_1"
  top: "res_stage_2_17_1"
  batch_norm_param {
      use_global_stats: false
  }
}
layer {
  name: "scale_stage_2_17_1"  
  type: "Scale"
  bottom: "res_stage_2_17_1"
  top: "res_stage_2_17_1"
  scale_param {
	bias_term: true
  }
}
 layer {
  name: "res_stage_2_17_1_relu"
  type: "ReLU"
  bottom: "res_stage_2_17_1"
  top: "res_stage_2_17_1"
}
layer {
  name: "res_stage_2_17_2"
  type: "Convolution"
  bottom: "res_stage_2_17_1"
  top: "res_stage_2_17_2"
  convolution_param {
    num_output: 128
    pad: 1
    kernel_size: 3
    stride: 1
    weight_filler {
      type: "msra"
    }
    bias_term: false
  }
}
layer {
  name: "bn_stage_2_17_2"
  type: "BatchNorm"
  bottom: "res_stage_2_17_2"
  top: "res_stage_2_17_2"
  batch_norm_param {
      use_global_stats: false
  }
}
layer {
  name: "scale_stage_2_17_2"  
  type: "Scale"
  bottom: "res_stage_2_17_2"
  top: "res_stage_2_17_2"
  scale_param {
	bias_term: true
  }
}
 layer {
  name: "res_stage_2_17_2_relu"
  type: "ReLU"
  bottom: "res_stage_2_17_2"
  top: "res_stage_2_17_2"
}
layer {
  name: "res_stage_2_17_3"
  type: "Convolution"
  bottom: "res_stage_2_17_2"
  top: "res_stage_2_17_3"
  convolution_param {
    num_output: 512
    pad: 0
    kernel_size: 1
    stride: 1
    weight_filler {
      type: "msra"
    }
    bias_term: false
  }
}
layer {
  name: "bn_stage_2_17_3"
  type: "BatchNorm"
  bottom: "res_stage_2_17_3"
  top: "res_stage_2_17_3"
  batch_norm_param {
      use_global_stats: false
  }
}
layer {
  name: "scale_stage_2_17_3"  
  type: "Scale"
  bottom: "res_stage_2_17_3"
  top: "res_stage_2_17_3"
  scale_param {
	bias_term: true
  }
}
 layer {
  name: "res_2_17"
  type: "Eltwise"
  bottom: "res_2_16"
  bottom: "res_stage_2_17_3"
  top: "res_2_17"
  eltwise_param {
    operation: SUM
  }
}
layer {
  name: "res_2_17_relu"
  type: "ReLU"
  bottom: "res_2_17"
  top: "res_2_17"
}
layer {
  name: "res_stage_2_18_1"
  type: "Convolution"
  bottom: "res_2_17"
  top: "res_stage_2_18_1"
  convolution_param {
    num_output: 128
    pad: 0
    kernel_size: 1
    stride: 1
    weight_filler {
      type: "msra"
    }
    bias_term: false
  }
}
layer {
  name: "bn_stage_2_18_1"
  type: "BatchNorm"
  bottom: "res_stage_2_18_1"
  top: "res_stage_2_18_1"
  batch_norm_param {
      use_global_stats: false
  }
}
layer {
  name: "scale_stage_2_18_1"  
  type: "Scale"
  bottom: "res_stage_2_18_1"
  top: "res_stage_2_18_1"
  scale_param {
	bias_term: true
  }
}
 layer {
  name: "res_stage_2_18_1_relu"
  type: "ReLU"
  bottom: "res_stage_2_18_1"
  top: "res_stage_2_18_1"
}
layer {
  name: "res_stage_2_18_2"
  type: "Convolution"
  bottom: "res_stage_2_18_1"
  top: "res_stage_2_18_2"
  convolution_param {
    num_output: 128
    pad: 1
    kernel_size: 3
    stride: 1
    weight_filler {
      type: "msra"
    }
    bias_term: false
  }
}
layer {
  name: "bn_stage_2_18_2"
  type: "BatchNorm"
  bottom: "res_stage_2_18_2"
  top: "res_stage_2_18_2"
  batch_norm_param {
      use_global_stats: false
  }
}
layer {
  name: "scale_stage_2_18_2"  
  type: "Scale"
  bottom: "res_stage_2_18_2"
  top: "res_stage_2_18_2"
  scale_param {
	bias_term: true
  }
}
 layer {
  name: "res_stage_2_18_2_relu"
  type: "ReLU"
  bottom: "res_stage_2_18_2"
  top: "res_stage_2_18_2"
}
layer {
  name: "res_stage_2_18_3"
  type: "Convolution"
  bottom: "res_stage_2_18_2"
  top: "res_stage_2_18_3"
  convolution_param {
    num_output: 512
    pad: 0
    kernel_size: 1
    stride: 1
    weight_filler {
      type: "msra"
    }
    bias_term: false
  }
}
layer {
  name: "bn_stage_2_18_3"
  type: "BatchNorm"
  bottom: "res_stage_2_18_3"
  top: "res_stage_2_18_3"
  batch_norm_param {
      use_global_stats: false
  }
}
layer {
  name: "scale_stage_2_18_3"  
  type: "Scale"
  bottom: "res_stage_2_18_3"
  top: "res_stage_2_18_3"
  scale_param {
	bias_term: true
  }
}
 layer {
  name: "res_2_18"
  type: "Eltwise"
  bottom: "res_2_17"
  bottom: "res_stage_2_18_3"
  top: "res_2_18"
  eltwise_param {
    operation: SUM
  }
}
layer {
  name: "res_2_18_relu"
  type: "ReLU"
  bottom: "res_2_18"
  top: "res_2_18"
}
layer {
  name: "res_stage_2_19_1"
  type: "Convolution"
  bottom: "res_2_18"
  top: "res_stage_2_19_1"
  convolution_param {
    num_output: 128
    pad: 0
    kernel_size: 1
    stride: 1
    weight_filler {
      type: "msra"
    }
    bias_term: false
  }
}
layer {
  name: "bn_stage_2_19_1"
  type: "BatchNorm"
  bottom: "res_stage_2_19_1"
  top: "res_stage_2_19_1"
  batch_norm_param {
      use_global_stats: false
  }
}
layer {
  name: "scale_stage_2_19_1"  
  type: "Scale"
  bottom: "res_stage_2_19_1"
  top: "res_stage_2_19_1"
  scale_param {
	bias_term: true
  }
}
 layer {
  name: "res_stage_2_19_1_relu"
  type: "ReLU"
  bottom: "res_stage_2_19_1"
  top: "res_stage_2_19_1"
}
layer {
  name: "res_stage_2_19_2"
  type: "Convolution"
  bottom: "res_stage_2_19_1"
  top: "res_stage_2_19_2"
  convolution_param {
    num_output: 128
    pad: 1
    kernel_size: 3
    stride: 1
    weight_filler {
      type: "msra"
    }
    bias_term: false
  }
}
layer {
  name: "bn_stage_2_19_2"
  type: "BatchNorm"
  bottom: "res_stage_2_19_2"
  top: "res_stage_2_19_2"
  batch_norm_param {
      use_global_stats: false
  }
}
layer {
  name: "scale_stage_2_19_2"  
  type: "Scale"
  bottom: "res_stage_2_19_2"
  top: "res_stage_2_19_2"
  scale_param {
	bias_term: true
  }
}
 layer {
  name: "res_stage_2_19_2_relu"
  type: "ReLU"
  bottom: "res_stage_2_19_2"
  top: "res_stage_2_19_2"
}
layer {
  name: "res_stage_2_19_3"
  type: "Convolution"
  bottom: "res_stage_2_19_2"
  top: "res_stage_2_19_3"
  convolution_param {
    num_output: 512
    pad: 0
    kernel_size: 1
    stride: 1
    weight_filler {
      type: "msra"
    }
    bias_term: false
  }
}
layer {
  name: "bn_stage_2_19_3"
  type: "BatchNorm"
  bottom: "res_stage_2_19_3"
  top: "res_stage_2_19_3"
  batch_norm_param {
      use_global_stats: false
  }
}
layer {
  name: "scale_stage_2_19_3"  
  type: "Scale"
  bottom: "res_stage_2_19_3"
  top: "res_stage_2_19_3"
  scale_param {
	bias_term: true
  }
}
 layer {
  name: "res_2_19"
  type: "Eltwise"
  bottom: "res_2_18"
  bottom: "res_stage_2_19_3"
  top: "res_2_19"
  eltwise_param {
    operation: SUM
  }
}
layer {
  name: "res_2_19_relu"
  type: "ReLU"
  bottom: "res_2_19"
  top: "res_2_19"
}
layer {
  name: "res_stage_2_20_1"
  type: "Convolution"
  bottom: "res_2_19"
  top: "res_stage_2_20_1"
  convolution_param {
    num_output: 128
    pad: 0
    kernel_size: 1
    stride: 1
    weight_filler {
      type: "msra"
    }
    bias_term: false
  }
}
layer {
  name: "bn_stage_2_20_1"
  type: "BatchNorm"
  bottom: "res_stage_2_20_1"
  top: "res_stage_2_20_1"
  batch_norm_param {
      use_global_stats: false
  }
}
layer {
  name: "scale_stage_2_20_1"  
  type: "Scale"
  bottom: "res_stage_2_20_1"
  top: "res_stage_2_20_1"
  scale_param {
	bias_term: true
  }
}
 layer {
  name: "res_stage_2_20_1_relu"
  type: "ReLU"
  bottom: "res_stage_2_20_1"
  top: "res_stage_2_20_1"
}
layer {
  name: "res_stage_2_20_2"
  type: "Convolution"
  bottom: "res_stage_2_20_1"
  top: "res_stage_2_20_2"
  convolution_param {
    num_output: 128
    pad: 1
    kernel_size: 3
    stride: 1
    weight_filler {
      type: "msra"
    }
    bias_term: false
  }
}
layer {
  name: "bn_stage_2_20_2"
  type: "BatchNorm"
  bottom: "res_stage_2_20_2"
  top: "res_stage_2_20_2"
  batch_norm_param {
      use_global_stats: false
  }
}
layer {
  name: "scale_stage_2_20_2"  
  type: "Scale"
  bottom: "res_stage_2_20_2"
  top: "res_stage_2_20_2"
  scale_param {
	bias_term: true
  }
}
 layer {
  name: "res_stage_2_20_2_relu"
  type: "ReLU"
  bottom: "res_stage_2_20_2"
  top: "res_stage_2_20_2"
}
layer {
  name: "res_stage_2_20_3"
  type: "Convolution"
  bottom: "res_stage_2_20_2"
  top: "res_stage_2_20_3"
  convolution_param {
    num_output: 512
    pad: 0
    kernel_size: 1
    stride: 1
    weight_filler {
      type: "msra"
    }
    bias_term: false
  }
}
layer {
  name: "bn_stage_2_20_3"
  type: "BatchNorm"
  bottom: "res_stage_2_20_3"
  top: "res_stage_2_20_3"
  batch_norm_param {
      use_global_stats: false
  }
}
layer {
  name: "scale_stage_2_20_3"  
  type: "Scale"
  bottom: "res_stage_2_20_3"
  top: "res_stage_2_20_3"
  scale_param {
	bias_term: true
  }
}
 layer {
  name: "res_2_20"
  type: "Eltwise"
  bottom: "res_2_19"
  bottom: "res_stage_2_20_3"
  top: "res_2_20"
  eltwise_param {
    operation: SUM
  }
}
layer {
  name: "res_2_20_relu"
  type: "ReLU"
  bottom: "res_2_20"
  top: "res_2_20"
}
layer {
  name: "res_stage_2_21_1"
  type: "Convolution"
  bottom: "res_2_20"
  top: "res_stage_2_21_1"
  convolution_param {
    num_output: 128
    pad: 0
    kernel_size: 1
    stride: 1
    weight_filler {
      type: "msra"
    }
    bias_term: false
  }
}
layer {
  name: "bn_stage_2_21_1"
  type: "BatchNorm"
  bottom: "res_stage_2_21_1"
  top: "res_stage_2_21_1"
  batch_norm_param {
      use_global_stats: false
  }
}
layer {
  name: "scale_stage_2_21_1"  
  type: "Scale"
  bottom: "res_stage_2_21_1"
  top: "res_stage_2_21_1"
  scale_param {
	bias_term: true
  }
}
 layer {
  name: "res_stage_2_21_1_relu"
  type: "ReLU"
  bottom: "res_stage_2_21_1"
  top: "res_stage_2_21_1"
}
layer {
  name: "res_stage_2_21_2"
  type: "Convolution"
  bottom: "res_stage_2_21_1"
  top: "res_stage_2_21_2"
  convolution_param {
    num_output: 128
    pad: 1
    kernel_size: 3
    stride: 1
    weight_filler {
      type: "msra"
    }
    bias_term: false
  }
}
layer {
  name: "bn_stage_2_21_2"
  type: "BatchNorm"
  bottom: "res_stage_2_21_2"
  top: "res_stage_2_21_2"
  batch_norm_param {
      use_global_stats: false
  }
}
layer {
  name: "scale_stage_2_21_2"  
  type: "Scale"
  bottom: "res_stage_2_21_2"
  top: "res_stage_2_21_2"
  scale_param {
	bias_term: true
  }
}
 layer {
  name: "res_stage_2_21_2_relu"
  type: "ReLU"
  bottom: "res_stage_2_21_2"
  top: "res_stage_2_21_2"
}
layer {
  name: "res_stage_2_21_3"
  type: "Convolution"
  bottom: "res_stage_2_21_2"
  top: "res_stage_2_21_3"
  convolution_param {
    num_output: 512
    pad: 0
    kernel_size: 1
    stride: 1
    weight_filler {
      type: "msra"
    }
    bias_term: false
  }
}
layer {
  name: "bn_stage_2_21_3"
  type: "BatchNorm"
  bottom: "res_stage_2_21_3"
  top: "res_stage_2_21_3"
  batch_norm_param {
      use_global_stats: false
  }
}
layer {
  name: "scale_stage_2_21_3"  
  type: "Scale"
  bottom: "res_stage_2_21_3"
  top: "res_stage_2_21_3"
  scale_param {
	bias_term: true
  }
}
 layer {
  name: "res_2_21"
  type: "Eltwise"
  bottom: "res_2_20"
  bottom: "res_stage_2_21_3"
  top: "res_2_21"
  eltwise_param {
    operation: SUM
  }
}
layer {
  name: "res_2_21_relu"
  type: "ReLU"
  bottom: "res_2_21"
  top: "res_2_21"
}
layer {
  name: "res_stage_2_22_1"
  type: "Convolution"
  bottom: "res_2_21"
  top: "res_stage_2_22_1"
  convolution_param {
    num_output: 128
    pad: 0
    kernel_size: 1
    stride: 1
    weight_filler {
      type: "msra"
    }
    bias_term: false
  }
}
layer {
  name: "bn_stage_2_22_1"
  type: "BatchNorm"
  bottom: "res_stage_2_22_1"
  top: "res_stage_2_22_1"
  batch_norm_param {
      use_global_stats: false
  }
}
layer {
  name: "scale_stage_2_22_1"  
  type: "Scale"
  bottom: "res_stage_2_22_1"
  top: "res_stage_2_22_1"
  scale_param {
	bias_term: true
  }
}
 layer {
  name: "res_stage_2_22_1_relu"
  type: "ReLU"
  bottom: "res_stage_2_22_1"
  top: "res_stage_2_22_1"
}
layer {
  name: "res_stage_2_22_2"
  type: "Convolution"
  bottom: "res_stage_2_22_1"
  top: "res_stage_2_22_2"
  convolution_param {
    num_output: 128
    pad: 1
    kernel_size: 3
    stride: 1
    weight_filler {
      type: "msra"
    }
    bias_term: false
  }
}
layer {
  name: "bn_stage_2_22_2"
  type: "BatchNorm"
  bottom: "res_stage_2_22_2"
  top: "res_stage_2_22_2"
  batch_norm_param {
      use_global_stats: false
  }
}
layer {
  name: "scale_stage_2_22_2"  
  type: "Scale"
  bottom: "res_stage_2_22_2"
  top: "res_stage_2_22_2"
  scale_param {
	bias_term: true
  }
}
 layer {
  name: "res_stage_2_22_2_relu"
  type: "ReLU"
  bottom: "res_stage_2_22_2"
  top: "res_stage_2_22_2"
}
layer {
  name: "res_stage_2_22_3"
  type: "Convolution"
  bottom: "res_stage_2_22_2"
  top: "res_stage_2_22_3"
  convolution_param {
    num_output: 512
    pad: 0
    kernel_size: 1
    stride: 1
    weight_filler {
      type: "msra"
    }
    bias_term: false
  }
}
layer {
  name: "bn_stage_2_22_3"
  type: "BatchNorm"
  bottom: "res_stage_2_22_3"
  top: "res_stage_2_22_3"
  batch_norm_param {
      use_global_stats: false
  }
}
layer {
  name: "scale_stage_2_22_3"  
  type: "Scale"
  bottom: "res_stage_2_22_3"
  top: "res_stage_2_22_3"
  scale_param {
	bias_term: true
  }
}
 layer {
  name: "res_2_22"
  type: "Eltwise"
  bottom: "res_2_21"
  bottom: "res_stage_2_22_3"
  top: "res_2_22"
  eltwise_param {
    operation: SUM
  }
}
layer {
  name: "res_2_22_relu"
  type: "ReLU"
  bottom: "res_2_22"
  top: "res_2_22"
}
layer {
  name: "res_stage_2_23_1"
  type: "Convolution"
  bottom: "res_2_22"
  top: "res_stage_2_23_1"
  convolution_param {
    num_output: 128
    pad: 0
    kernel_size: 1
    stride: 1
    weight_filler {
      type: "msra"
    }
    bias_term: false
  }
}
layer {
  name: "bn_stage_2_23_1"
  type: "BatchNorm"
  bottom: "res_stage_2_23_1"
  top: "res_stage_2_23_1"
  batch_norm_param {
      use_global_stats: false
  }
}
layer {
  name: "scale_stage_2_23_1"  
  type: "Scale"
  bottom: "res_stage_2_23_1"
  top: "res_stage_2_23_1"
  scale_param {
	bias_term: true
  }
}
 layer {
  name: "res_stage_2_23_1_relu"
  type: "ReLU"
  bottom: "res_stage_2_23_1"
  top: "res_stage_2_23_1"
}
layer {
  name: "res_stage_2_23_2"
  type: "Convolution"
  bottom: "res_stage_2_23_1"
  top: "res_stage_2_23_2"
  convolution_param {
    num_output: 128
    pad: 1
    kernel_size: 3
    stride: 1
    weight_filler {
      type: "msra"
    }
    bias_term: false
  }
}
layer {
  name: "bn_stage_2_23_2"
  type: "BatchNorm"
  bottom: "res_stage_2_23_2"
  top: "res_stage_2_23_2"
  batch_norm_param {
      use_global_stats: false
  }
}
layer {
  name: "scale_stage_2_23_2"  
  type: "Scale"
  bottom: "res_stage_2_23_2"
  top: "res_stage_2_23_2"
  scale_param {
	bias_term: true
  }
}
 layer {
  name: "res_stage_2_23_2_relu"
  type: "ReLU"
  bottom: "res_stage_2_23_2"
  top: "res_stage_2_23_2"
}
layer {
  name: "res_stage_2_23_3"
  type: "Convolution"
  bottom: "res_stage_2_23_2"
  top: "res_stage_2_23_3"
  convolution_param {
    num_output: 512
    pad: 0
    kernel_size: 1
    stride: 1
    weight_filler {
      type: "msra"
    }
    bias_term: false
  }
}
layer {
  name: "bn_stage_2_23_3"
  type: "BatchNorm"
  bottom: "res_stage_2_23_3"
  top: "res_stage_2_23_3"
  batch_norm_param {
      use_global_stats: false
  }
}
layer {
  name: "scale_stage_2_23_3"  
  type: "Scale"
  bottom: "res_stage_2_23_3"
  top: "res_stage_2_23_3"
  scale_param {
	bias_term: true
  }
}
 layer {
  name: "res_2_23"
  type: "Eltwise"
  bottom: "res_2_22"
  bottom: "res_stage_2_23_3"
  top: "res_2_23"
  eltwise_param {
    operation: SUM
  }
}
layer {
  name: "res_2_23_relu"
  type: "ReLU"
  bottom: "res_2_23"
  top: "res_2_23"
}
layer {
  name: "res_stage_2_24_1"
  type: "Convolution"
  bottom: "res_2_23"
  top: "res_stage_2_24_1"
  convolution_param {
    num_output: 128
    pad: 0
    kernel_size: 1
    stride: 1
    weight_filler {
      type: "msra"
    }
    bias_term: false
  }
}
layer {
  name: "bn_stage_2_24_1"
  type: "BatchNorm"
  bottom: "res_stage_2_24_1"
  top: "res_stage_2_24_1"
  batch_norm_param {
      use_global_stats: false
  }
}
layer {
  name: "scale_stage_2_24_1"  
  type: "Scale"
  bottom: "res_stage_2_24_1"
  top: "res_stage_2_24_1"
  scale_param {
	bias_term: true
  }
}
 layer {
  name: "res_stage_2_24_1_relu"
  type: "ReLU"
  bottom: "res_stage_2_24_1"
  top: "res_stage_2_24_1"
}
layer {
  name: "res_stage_2_24_2"
  type: "Convolution"
  bottom: "res_stage_2_24_1"
  top: "res_stage_2_24_2"
  convolution_param {
    num_output: 128
    pad: 1
    kernel_size: 3
    stride: 1
    weight_filler {
      type: "msra"
    }
    bias_term: false
  }
}
layer {
  name: "bn_stage_2_24_2"
  type: "BatchNorm"
  bottom: "res_stage_2_24_2"
  top: "res_stage_2_24_2"
  batch_norm_param {
      use_global_stats: false
  }
}
layer {
  name: "scale_stage_2_24_2"  
  type: "Scale"
  bottom: "res_stage_2_24_2"
  top: "res_stage_2_24_2"
  scale_param {
	bias_term: true
  }
}
 layer {
  name: "res_stage_2_24_2_relu"
  type: "ReLU"
  bottom: "res_stage_2_24_2"
  top: "res_stage_2_24_2"
}
layer {
  name: "res_stage_2_24_3"
  type: "Convolution"
  bottom: "res_stage_2_24_2"
  top: "res_stage_2_24_3"
  convolution_param {
    num_output: 512
    pad: 0
    kernel_size: 1
    stride: 1
    weight_filler {
      type: "msra"
    }
    bias_term: false
  }
}
layer {
  name: "bn_stage_2_24_3"
  type: "BatchNorm"
  bottom: "res_stage_2_24_3"
  top: "res_stage_2_24_3"
  batch_norm_param {
      use_global_stats: false
  }
}
layer {
  name: "scale_stage_2_24_3"  
  type: "Scale"
  bottom: "res_stage_2_24_3"
  top: "res_stage_2_24_3"
  scale_param {
	bias_term: true
  }
}
 layer {
  name: "res_2_24"
  type: "Eltwise"
  bottom: "res_2_23"
  bottom: "res_stage_2_24_3"
  top: "res_2_24"
  eltwise_param {
    operation: SUM
  }
}
layer {
  name: "res_2_24_relu"
  type: "ReLU"
  bottom: "res_2_24"
  top: "res_2_24"
}
layer {
  name: "res_stage_2_25_1"
  type: "Convolution"
  bottom: "res_2_24"
  top: "res_stage_2_25_1"
  convolution_param {
    num_output: 128
    pad: 0
    kernel_size: 1
    stride: 1
    weight_filler {
      type: "msra"
    }
    bias_term: false
  }
}
layer {
  name: "bn_stage_2_25_1"
  type: "BatchNorm"
  bottom: "res_stage_2_25_1"
  top: "res_stage_2_25_1"
  batch_norm_param {
      use_global_stats: false
  }
}
layer {
  name: "scale_stage_2_25_1"  
  type: "Scale"
  bottom: "res_stage_2_25_1"
  top: "res_stage_2_25_1"
  scale_param {
	bias_term: true
  }
}
 layer {
  name: "res_stage_2_25_1_relu"
  type: "ReLU"
  bottom: "res_stage_2_25_1"
  top: "res_stage_2_25_1"
}
layer {
  name: "res_stage_2_25_2"
  type: "Convolution"
  bottom: "res_stage_2_25_1"
  top: "res_stage_2_25_2"
  convolution_param {
    num_output: 128
    pad: 1
    kernel_size: 3
    stride: 1
    weight_filler {
      type: "msra"
    }
    bias_term: false
  }
}
layer {
  name: "bn_stage_2_25_2"
  type: "BatchNorm"
  bottom: "res_stage_2_25_2"
  top: "res_stage_2_25_2"
  batch_norm_param {
      use_global_stats: false
  }
}
layer {
  name: "scale_stage_2_25_2"  
  type: "Scale"
  bottom: "res_stage_2_25_2"
  top: "res_stage_2_25_2"
  scale_param {
	bias_term: true
  }
}
 layer {
  name: "res_stage_2_25_2_relu"
  type: "ReLU"
  bottom: "res_stage_2_25_2"
  top: "res_stage_2_25_2"
}
layer {
  name: "res_stage_2_25_3"
  type: "Convolution"
  bottom: "res_stage_2_25_2"
  top: "res_stage_2_25_3"
  convolution_param {
    num_output: 512
    pad: 0
    kernel_size: 1
    stride: 1
    weight_filler {
      type: "msra"
    }
    bias_term: false
  }
}
layer {
  name: "bn_stage_2_25_3"
  type: "BatchNorm"
  bottom: "res_stage_2_25_3"
  top: "res_stage_2_25_3"
  batch_norm_param {
      use_global_stats: false
  }
}
layer {
  name: "scale_stage_2_25_3"  
  type: "Scale"
  bottom: "res_stage_2_25_3"
  top: "res_stage_2_25_3"
  scale_param {
	bias_term: true
  }
}
 layer {
  name: "res_2_25"
  type: "Eltwise"
  bottom: "res_2_24"
  bottom: "res_stage_2_25_3"
  top: "res_2_25"
  eltwise_param {
    operation: SUM
  }
}
layer {
  name: "res_2_25_relu"
  type: "ReLU"
  bottom: "res_2_25"
  top: "res_2_25"
}
layer {
  name: "res_stage_2_26_1"
  type: "Convolution"
  bottom: "res_2_25"
  top: "res_stage_2_26_1"
  convolution_param {
    num_output: 128
    pad: 0
    kernel_size: 1
    stride: 1
    weight_filler {
      type: "msra"
    }
    bias_term: false
  }
}
layer {
  name: "bn_stage_2_26_1"
  type: "BatchNorm"
  bottom: "res_stage_2_26_1"
  top: "res_stage_2_26_1"
  batch_norm_param {
      use_global_stats: false
  }
}
layer {
  name: "scale_stage_2_26_1"  
  type: "Scale"
  bottom: "res_stage_2_26_1"
  top: "res_stage_2_26_1"
  scale_param {
	bias_term: true
  }
}
 layer {
  name: "res_stage_2_26_1_relu"
  type: "ReLU"
  bottom: "res_stage_2_26_1"
  top: "res_stage_2_26_1"
}
layer {
  name: "res_stage_2_26_2"
  type: "Convolution"
  bottom: "res_stage_2_26_1"
  top: "res_stage_2_26_2"
  convolution_param {
    num_output: 128
    pad: 1
    kernel_size: 3
    stride: 1
    weight_filler {
      type: "msra"
    }
    bias_term: false
  }
}
layer {
  name: "bn_stage_2_26_2"
  type: "BatchNorm"
  bottom: "res_stage_2_26_2"
  top: "res_stage_2_26_2"
  batch_norm_param {
      use_global_stats: false
  }
}
layer {
  name: "scale_stage_2_26_2"  
  type: "Scale"
  bottom: "res_stage_2_26_2"
  top: "res_stage_2_26_2"
  scale_param {
	bias_term: true
  }
}
 layer {
  name: "res_stage_2_26_2_relu"
  type: "ReLU"
  bottom: "res_stage_2_26_2"
  top: "res_stage_2_26_2"
}
layer {
  name: "res_stage_2_26_3"
  type: "Convolution"
  bottom: "res_stage_2_26_2"
  top: "res_stage_2_26_3"
  convolution_param {
    num_output: 512
    pad: 0
    kernel_size: 1
    stride: 1
    weight_filler {
      type: "msra"
    }
    bias_term: false
  }
}
layer {
  name: "bn_stage_2_26_3"
  type: "BatchNorm"
  bottom: "res_stage_2_26_3"
  top: "res_stage_2_26_3"
  batch_norm_param {
      use_global_stats: false
  }
}
layer {
  name: "scale_stage_2_26_3"  
  type: "Scale"
  bottom: "res_stage_2_26_3"
  top: "res_stage_2_26_3"
  scale_param {
	bias_term: true
  }
}
 layer {
  name: "res_2_26"
  type: "Eltwise"
  bottom: "res_2_25"
  bottom: "res_stage_2_26_3"
  top: "res_2_26"
  eltwise_param {
    operation: SUM
  }
}
layer {
  name: "res_2_26_relu"
  type: "ReLU"
  bottom: "res_2_26"
  top: "res_2_26"
}
layer {
  name: "res_stage_2_27_1"
  type: "Convolution"
  bottom: "res_2_26"
  top: "res_stage_2_27_1"
  convolution_param {
    num_output: 128
    pad: 0
    kernel_size: 1
    stride: 1
    weight_filler {
      type: "msra"
    }
    bias_term: false
  }
}
layer {
  name: "bn_stage_2_27_1"
  type: "BatchNorm"
  bottom: "res_stage_2_27_1"
  top: "res_stage_2_27_1"
  batch_norm_param {
      use_global_stats: false
  }
}
layer {
  name: "scale_stage_2_27_1"  
  type: "Scale"
  bottom: "res_stage_2_27_1"
  top: "res_stage_2_27_1"
  scale_param {
	bias_term: true
  }
}
 layer {
  name: "res_stage_2_27_1_relu"
  type: "ReLU"
  bottom: "res_stage_2_27_1"
  top: "res_stage_2_27_1"
}
layer {
  name: "res_stage_2_27_2"
  type: "Convolution"
  bottom: "res_stage_2_27_1"
  top: "res_stage_2_27_2"
  convolution_param {
    num_output: 128
    pad: 1
    kernel_size: 3
    stride: 1
    weight_filler {
      type: "msra"
    }
    bias_term: false
  }
}
layer {
  name: "bn_stage_2_27_2"
  type: "BatchNorm"
  bottom: "res_stage_2_27_2"
  top: "res_stage_2_27_2"
  batch_norm_param {
      use_global_stats: false
  }
}
layer {
  name: "scale_stage_2_27_2"  
  type: "Scale"
  bottom: "res_stage_2_27_2"
  top: "res_stage_2_27_2"
  scale_param {
	bias_term: true
  }
}
 layer {
  name: "res_stage_2_27_2_relu"
  type: "ReLU"
  bottom: "res_stage_2_27_2"
  top: "res_stage_2_27_2"
}
layer {
  name: "res_stage_2_27_3"
  type: "Convolution"
  bottom: "res_stage_2_27_2"
  top: "res_stage_2_27_3"
  convolution_param {
    num_output: 512
    pad: 0
    kernel_size: 1
    stride: 1
    weight_filler {
      type: "msra"
    }
    bias_term: false
  }
}
layer {
  name: "bn_stage_2_27_3"
  type: "BatchNorm"
  bottom: "res_stage_2_27_3"
  top: "res_stage_2_27_3"
  batch_norm_param {
      use_global_stats: false
  }
}
layer {
  name: "scale_stage_2_27_3"  
  type: "Scale"
  bottom: "res_stage_2_27_3"
  top: "res_stage_2_27_3"
  scale_param {
	bias_term: true
  }
}
 layer {
  name: "res_2_27"
  type: "Eltwise"
  bottom: "res_2_26"
  bottom: "res_stage_2_27_3"
  top: "res_2_27"
  eltwise_param {
    operation: SUM
  }
}
layer {
  name: "res_2_27_relu"
  type: "ReLU"
  bottom: "res_2_27"
  top: "res_2_27"
}
layer {
  name: "res_stage_2_28_1"
  type: "Convolution"
  bottom: "res_2_27"
  top: "res_stage_2_28_1"
  convolution_param {
    num_output: 128
    pad: 0
    kernel_size: 1
    stride: 1
    weight_filler {
      type: "msra"
    }
    bias_term: false
  }
}
layer {
  name: "bn_stage_2_28_1"
  type: "BatchNorm"
  bottom: "res_stage_2_28_1"
  top: "res_stage_2_28_1"
  batch_norm_param {
      use_global_stats: false
  }
}
layer {
  name: "scale_stage_2_28_1"  
  type: "Scale"
  bottom: "res_stage_2_28_1"
  top: "res_stage_2_28_1"
  scale_param {
	bias_term: true
  }
}
 layer {
  name: "res_stage_2_28_1_relu"
  type: "ReLU"
  bottom: "res_stage_2_28_1"
  top: "res_stage_2_28_1"
}
layer {
  name: "res_stage_2_28_2"
  type: "Convolution"
  bottom: "res_stage_2_28_1"
  top: "res_stage_2_28_2"
  convolution_param {
    num_output: 128
    pad: 1
    kernel_size: 3
    stride: 1
    weight_filler {
      type: "msra"
    }
    bias_term: false
  }
}
layer {
  name: "bn_stage_2_28_2"
  type: "BatchNorm"
  bottom: "res_stage_2_28_2"
  top: "res_stage_2_28_2"
  batch_norm_param {
      use_global_stats: false
  }
}
layer {
  name: "scale_stage_2_28_2"  
  type: "Scale"
  bottom: "res_stage_2_28_2"
  top: "res_stage_2_28_2"
  scale_param {
	bias_term: true
  }
}
 layer {
  name: "res_stage_2_28_2_relu"
  type: "ReLU"
  bottom: "res_stage_2_28_2"
  top: "res_stage_2_28_2"
}
layer {
  name: "res_stage_2_28_3"
  type: "Convolution"
  bottom: "res_stage_2_28_2"
  top: "res_stage_2_28_3"
  convolution_param {
    num_output: 512
    pad: 0
    kernel_size: 1
    stride: 1
    weight_filler {
      type: "msra"
    }
    bias_term: false
  }
}
layer {
  name: "bn_stage_2_28_3"
  type: "BatchNorm"
  bottom: "res_stage_2_28_3"
  top: "res_stage_2_28_3"
  batch_norm_param {
      use_global_stats: false
  }
}
layer {
  name: "scale_stage_2_28_3"  
  type: "Scale"
  bottom: "res_stage_2_28_3"
  top: "res_stage_2_28_3"
  scale_param {
	bias_term: true
  }
}
 layer {
  name: "res_2_28"
  type: "Eltwise"
  bottom: "res_2_27"
  bottom: "res_stage_2_28_3"
  top: "res_2_28"
  eltwise_param {
    operation: SUM
  }
}
layer {
  name: "res_2_28_relu"
  type: "ReLU"
  bottom: "res_2_28"
  top: "res_2_28"
}
layer {
  name: "res_stage_2_29_1"
  type: "Convolution"
  bottom: "res_2_28"
  top: "res_stage_2_29_1"
  convolution_param {
    num_output: 128
    pad: 0
    kernel_size: 1
    stride: 1
    weight_filler {
      type: "msra"
    }
    bias_term: false
  }
}
layer {
  name: "bn_stage_2_29_1"
  type: "BatchNorm"
  bottom: "res_stage_2_29_1"
  top: "res_stage_2_29_1"
  batch_norm_param {
      use_global_stats: false
  }
}
layer {
  name: "scale_stage_2_29_1"  
  type: "Scale"
  bottom: "res_stage_2_29_1"
  top: "res_stage_2_29_1"
  scale_param {
	bias_term: true
  }
}
 layer {
  name: "res_stage_2_29_1_relu"
  type: "ReLU"
  bottom: "res_stage_2_29_1"
  top: "res_stage_2_29_1"
}
layer {
  name: "res_stage_2_29_2"
  type: "Convolution"
  bottom: "res_stage_2_29_1"
  top: "res_stage_2_29_2"
  convolution_param {
    num_output: 128
    pad: 1
    kernel_size: 3
    stride: 1
    weight_filler {
      type: "msra"
    }
    bias_term: false
  }
}
layer {
  name: "bn_stage_2_29_2"
  type: "BatchNorm"
  bottom: "res_stage_2_29_2"
  top: "res_stage_2_29_2"
  batch_norm_param {
      use_global_stats: false
  }
}
layer {
  name: "scale_stage_2_29_2"  
  type: "Scale"
  bottom: "res_stage_2_29_2"
  top: "res_stage_2_29_2"
  scale_param {
	bias_term: true
  }
}
 layer {
  name: "res_stage_2_29_2_relu"
  type: "ReLU"
  bottom: "res_stage_2_29_2"
  top: "res_stage_2_29_2"
}
layer {
  name: "res_stage_2_29_3"
  type: "Convolution"
  bottom: "res_stage_2_29_2"
  top: "res_stage_2_29_3"
  convolution_param {
    num_output: 512
    pad: 0
    kernel_size: 1
    stride: 1
    weight_filler {
      type: "msra"
    }
    bias_term: false
  }
}
layer {
  name: "bn_stage_2_29_3"
  type: "BatchNorm"
  bottom: "res_stage_2_29_3"
  top: "res_stage_2_29_3"
  batch_norm_param {
      use_global_stats: false
  }
}
layer {
  name: "scale_stage_2_29_3"  
  type: "Scale"
  bottom: "res_stage_2_29_3"
  top: "res_stage_2_29_3"
  scale_param {
	bias_term: true
  }
}
 layer {
  name: "res_2_29"
  type: "Eltwise"
  bottom: "res_2_28"
  bottom: "res_stage_2_29_3"
  top: "res_2_29"
  eltwise_param {
    operation: SUM
  }
}
layer {
  name: "res_2_29_relu"
  type: "ReLU"
  bottom: "res_2_29"
  top: "res_2_29"
}
layer {
  name: "res_stage_2_30_1"
  type: "Convolution"
  bottom: "res_2_29"
  top: "res_stage_2_30_1"
  convolution_param {
    num_output: 128
    pad: 0
    kernel_size: 1
    stride: 1
    weight_filler {
      type: "msra"
    }
    bias_term: false
  }
}
layer {
  name: "bn_stage_2_30_1"
  type: "BatchNorm"
  bottom: "res_stage_2_30_1"
  top: "res_stage_2_30_1"
  batch_norm_param {
      use_global_stats: false
  }
}
layer {
  name: "scale_stage_2_30_1"  
  type: "Scale"
  bottom: "res_stage_2_30_1"
  top: "res_stage_2_30_1"
  scale_param {
	bias_term: true
  }
}
 layer {
  name: "res_stage_2_30_1_relu"
  type: "ReLU"
  bottom: "res_stage_2_30_1"
  top: "res_stage_2_30_1"
}
layer {
  name: "res_stage_2_30_2"
  type: "Convolution"
  bottom: "res_stage_2_30_1"
  top: "res_stage_2_30_2"
  convolution_param {
    num_output: 128
    pad: 1
    kernel_size: 3
    stride: 1
    weight_filler {
      type: "msra"
    }
    bias_term: false
  }
}
layer {
  name: "bn_stage_2_30_2"
  type: "BatchNorm"
  bottom: "res_stage_2_30_2"
  top: "res_stage_2_30_2"
  batch_norm_param {
      use_global_stats: false
  }
}
layer {
  name: "scale_stage_2_30_2"  
  type: "Scale"
  bottom: "res_stage_2_30_2"
  top: "res_stage_2_30_2"
  scale_param {
	bias_term: true
  }
}
 layer {
  name: "res_stage_2_30_2_relu"
  type: "ReLU"
  bottom: "res_stage_2_30_2"
  top: "res_stage_2_30_2"
}
layer {
  name: "res_stage_2_30_3"
  type: "Convolution"
  bottom: "res_stage_2_30_2"
  top: "res_stage_2_30_3"
  convolution_param {
    num_output: 512
    pad: 0
    kernel_size: 1
    stride: 1
    weight_filler {
      type: "msra"
    }
    bias_term: false
  }
}
layer {
  name: "bn_stage_2_30_3"
  type: "BatchNorm"
  bottom: "res_stage_2_30_3"
  top: "res_stage_2_30_3"
  batch_norm_param {
      use_global_stats: false
  }
}
layer {
  name: "scale_stage_2_30_3"  
  type: "Scale"
  bottom: "res_stage_2_30_3"
  top: "res_stage_2_30_3"
  scale_param {
	bias_term: true
  }
}
 layer {
  name: "res_2_30"
  type: "Eltwise"
  bottom: "res_2_29"
  bottom: "res_stage_2_30_3"
  top: "res_2_30"
  eltwise_param {
    operation: SUM
  }
}
layer {
  name: "res_2_30_relu"
  type: "ReLU"
  bottom: "res_2_30"
  top: "res_2_30"
}
layer {
  name: "res_stage_2_31_1"
  type: "Convolution"
  bottom: "res_2_30"
  top: "res_stage_2_31_1"
  convolution_param {
    num_output: 128
    pad: 0
    kernel_size: 1
    stride: 1
    weight_filler {
      type: "msra"
    }
    bias_term: false
  }
}
layer {
  name: "bn_stage_2_31_1"
  type: "BatchNorm"
  bottom: "res_stage_2_31_1"
  top: "res_stage_2_31_1"
  batch_norm_param {
      use_global_stats: false
  }
}
layer {
  name: "scale_stage_2_31_1"  
  type: "Scale"
  bottom: "res_stage_2_31_1"
  top: "res_stage_2_31_1"
  scale_param {
	bias_term: true
  }
}
 layer {
  name: "res_stage_2_31_1_relu"
  type: "ReLU"
  bottom: "res_stage_2_31_1"
  top: "res_stage_2_31_1"
}
layer {
  name: "res_stage_2_31_2"
  type: "Convolution"
  bottom: "res_stage_2_31_1"
  top: "res_stage_2_31_2"
  convolution_param {
    num_output: 128
    pad: 1
    kernel_size: 3
    stride: 1
    weight_filler {
      type: "msra"
    }
    bias_term: false
  }
}
layer {
  name: "bn_stage_2_31_2"
  type: "BatchNorm"
  bottom: "res_stage_2_31_2"
  top: "res_stage_2_31_2"
  batch_norm_param {
      use_global_stats: false
  }
}
layer {
  name: "scale_stage_2_31_2"  
  type: "Scale"
  bottom: "res_stage_2_31_2"
  top: "res_stage_2_31_2"
  scale_param {
	bias_term: true
  }
}
 layer {
  name: "res_stage_2_31_2_relu"
  type: "ReLU"
  bottom: "res_stage_2_31_2"
  top: "res_stage_2_31_2"
}
layer {
  name: "res_stage_2_31_3"
  type: "Convolution"
  bottom: "res_stage_2_31_2"
  top: "res_stage_2_31_3"
  convolution_param {
    num_output: 512
    pad: 0
    kernel_size: 1
    stride: 1
    weight_filler {
      type: "msra"
    }
    bias_term: false
  }
}
layer {
  name: "bn_stage_2_31_3"
  type: "BatchNorm"
  bottom: "res_stage_2_31_3"
  top: "res_stage_2_31_3"
  batch_norm_param {
      use_global_stats: false
  }
}
layer {
  name: "scale_stage_2_31_3"  
  type: "Scale"
  bottom: "res_stage_2_31_3"
  top: "res_stage_2_31_3"
  scale_param {
	bias_term: true
  }
}
 layer {
  name: "res_2_31"
  type: "Eltwise"
  bottom: "res_2_30"
  bottom: "res_stage_2_31_3"
  top: "res_2_31"
  eltwise_param {
    operation: SUM
  }
}
layer {
  name: "res_2_31_relu"
  type: "ReLU"
  bottom: "res_2_31"
  top: "res_2_31"
}
layer {
  name: "res_stage_2_32_1"
  type: "Convolution"
  bottom: "res_2_31"
  top: "res_stage_2_32_1"
  convolution_param {
    num_output: 128
    pad: 0
    kernel_size: 1
    stride: 1
    weight_filler {
      type: "msra"
    }
    bias_term: false
  }
}
layer {
  name: "bn_stage_2_32_1"
  type: "BatchNorm"
  bottom: "res_stage_2_32_1"
  top: "res_stage_2_32_1"
  batch_norm_param {
      use_global_stats: false
  }
}
layer {
  name: "scale_stage_2_32_1"  
  type: "Scale"
  bottom: "res_stage_2_32_1"
  top: "res_stage_2_32_1"
  scale_param {
	bias_term: true
  }
}
 layer {
  name: "res_stage_2_32_1_relu"
  type: "ReLU"
  bottom: "res_stage_2_32_1"
  top: "res_stage_2_32_1"
}
layer {
  name: "res_stage_2_32_2"
  type: "Convolution"
  bottom: "res_stage_2_32_1"
  top: "res_stage_2_32_2"
  convolution_param {
    num_output: 128
    pad: 1
    kernel_size: 3
    stride: 1
    weight_filler {
      type: "msra"
    }
    bias_term: false
  }
}
layer {
  name: "bn_stage_2_32_2"
  type: "BatchNorm"
  bottom: "res_stage_2_32_2"
  top: "res_stage_2_32_2"
  batch_norm_param {
      use_global_stats: false
  }
}
layer {
  name: "scale_stage_2_32_2"  
  type: "Scale"
  bottom: "res_stage_2_32_2"
  top: "res_stage_2_32_2"
  scale_param {
	bias_term: true
  }
}
 layer {
  name: "res_stage_2_32_2_relu"
  type: "ReLU"
  bottom: "res_stage_2_32_2"
  top: "res_stage_2_32_2"
}
layer {
  name: "res_stage_2_32_3"
  type: "Convolution"
  bottom: "res_stage_2_32_2"
  top: "res_stage_2_32_3"
  convolution_param {
    num_output: 512
    pad: 0
    kernel_size: 1
    stride: 1
    weight_filler {
      type: "msra"
    }
    bias_term: false
  }
}
layer {
  name: "bn_stage_2_32_3"
  type: "BatchNorm"
  bottom: "res_stage_2_32_3"
  top: "res_stage_2_32_3"
  batch_norm_param {
      use_global_stats: false
  }
}
layer {
  name: "scale_stage_2_32_3"  
  type: "Scale"
  bottom: "res_stage_2_32_3"
  top: "res_stage_2_32_3"
  scale_param {
	bias_term: true
  }
}
 layer {
  name: "res_2_32"
  type: "Eltwise"
  bottom: "res_2_31"
  bottom: "res_stage_2_32_3"
  top: "res_2_32"
  eltwise_param {
    operation: SUM
  }
}
layer {
  name: "res_2_32_relu"
  type: "ReLU"
  bottom: "res_2_32"
  top: "res_2_32"
}
layer {
  name: "res_stage_2_33_1"
  type: "Convolution"
  bottom: "res_2_32"
  top: "res_stage_2_33_1"
  convolution_param {
    num_output: 128
    pad: 0
    kernel_size: 1
    stride: 1
    weight_filler {
      type: "msra"
    }
    bias_term: false
  }
}
layer {
  name: "bn_stage_2_33_1"
  type: "BatchNorm"
  bottom: "res_stage_2_33_1"
  top: "res_stage_2_33_1"
  batch_norm_param {
      use_global_stats: false
  }
}
layer {
  name: "scale_stage_2_33_1"  
  type: "Scale"
  bottom: "res_stage_2_33_1"
  top: "res_stage_2_33_1"
  scale_param {
	bias_term: true
  }
}
 layer {
  name: "res_stage_2_33_1_relu"
  type: "ReLU"
  bottom: "res_stage_2_33_1"
  top: "res_stage_2_33_1"
}
layer {
  name: "res_stage_2_33_2"
  type: "Convolution"
  bottom: "res_stage_2_33_1"
  top: "res_stage_2_33_2"
  convolution_param {
    num_output: 128
    pad: 1
    kernel_size: 3
    stride: 1
    weight_filler {
      type: "msra"
    }
    bias_term: false
  }
}
layer {
  name: "bn_stage_2_33_2"
  type: "BatchNorm"
  bottom: "res_stage_2_33_2"
  top: "res_stage_2_33_2"
  batch_norm_param {
      use_global_stats: false
  }
}
layer {
  name: "scale_stage_2_33_2"  
  type: "Scale"
  bottom: "res_stage_2_33_2"
  top: "res_stage_2_33_2"
  scale_param {
	bias_term: true
  }
}
 layer {
  name: "res_stage_2_33_2_relu"
  type: "ReLU"
  bottom: "res_stage_2_33_2"
  top: "res_stage_2_33_2"
}
layer {
  name: "res_stage_2_33_3"
  type: "Convolution"
  bottom: "res_stage_2_33_2"
  top: "res_stage_2_33_3"
  convolution_param {
    num_output: 512
    pad: 0
    kernel_size: 1
    stride: 1
    weight_filler {
      type: "msra"
    }
    bias_term: false
  }
}
layer {
  name: "bn_stage_2_33_3"
  type: "BatchNorm"
  bottom: "res_stage_2_33_3"
  top: "res_stage_2_33_3"
  batch_norm_param {
      use_global_stats: false
  }
}
layer {
  name: "scale_stage_2_33_3"  
  type: "Scale"
  bottom: "res_stage_2_33_3"
  top: "res_stage_2_33_3"
  scale_param {
	bias_term: true
  }
}
 layer {
  name: "res_2_33"
  type: "Eltwise"
  bottom: "res_2_32"
  bottom: "res_stage_2_33_3"
  top: "res_2_33"
  eltwise_param {
    operation: SUM
  }
}
layer {
  name: "res_2_33_relu"
  type: "ReLU"
  bottom: "res_2_33"
  top: "res_2_33"
}
layer {
  name: "res_stage_2_34_1"
  type: "Convolution"
  bottom: "res_2_33"
  top: "res_stage_2_34_1"
  convolution_param {
    num_output: 128
    pad: 0
    kernel_size: 1
    stride: 1
    weight_filler {
      type: "msra"
    }
    bias_term: false
  }
}
layer {
  name: "bn_stage_2_34_1"
  type: "BatchNorm"
  bottom: "res_stage_2_34_1"
  top: "res_stage_2_34_1"
  batch_norm_param {
      use_global_stats: false
  }
}
layer {
  name: "scale_stage_2_34_1"  
  type: "Scale"
  bottom: "res_stage_2_34_1"
  top: "res_stage_2_34_1"
  scale_param {
	bias_term: true
  }
}
 layer {
  name: "res_stage_2_34_1_relu"
  type: "ReLU"
  bottom: "res_stage_2_34_1"
  top: "res_stage_2_34_1"
}
layer {
  name: "res_stage_2_34_2"
  type: "Convolution"
  bottom: "res_stage_2_34_1"
  top: "res_stage_2_34_2"
  convolution_param {
    num_output: 128
    pad: 1
    kernel_size: 3
    stride: 1
    weight_filler {
      type: "msra"
    }
    bias_term: false
  }
}
layer {
  name: "bn_stage_2_34_2"
  type: "BatchNorm"
  bottom: "res_stage_2_34_2"
  top: "res_stage_2_34_2"
  batch_norm_param {
      use_global_stats: false
  }
}
layer {
  name: "scale_stage_2_34_2"  
  type: "Scale"
  bottom: "res_stage_2_34_2"
  top: "res_stage_2_34_2"
  scale_param {
	bias_term: true
  }
}
 layer {
  name: "res_stage_2_34_2_relu"
  type: "ReLU"
  bottom: "res_stage_2_34_2"
  top: "res_stage_2_34_2"
}
layer {
  name: "res_stage_2_34_3"
  type: "Convolution"
  bottom: "res_stage_2_34_2"
  top: "res_stage_2_34_3"
  convolution_param {
    num_output: 512
    pad: 0
    kernel_size: 1
    stride: 1
    weight_filler {
      type: "msra"
    }
    bias_term: false
  }
}
layer {
  name: "bn_stage_2_34_3"
  type: "BatchNorm"
  bottom: "res_stage_2_34_3"
  top: "res_stage_2_34_3"
  batch_norm_param {
      use_global_stats: false
  }
}
layer {
  name: "scale_stage_2_34_3"  
  type: "Scale"
  bottom: "res_stage_2_34_3"
  top: "res_stage_2_34_3"
  scale_param {
	bias_term: true
  }
}
 layer {
  name: "res_2_34"
  type: "Eltwise"
  bottom: "res_2_33"
  bottom: "res_stage_2_34_3"
  top: "res_2_34"
  eltwise_param {
    operation: SUM
  }
}
layer {
  name: "res_2_34_relu"
  type: "ReLU"
  bottom: "res_2_34"
  top: "res_2_34"
}
layer {
  name: "res_stage_2_35_1"
  type: "Convolution"
  bottom: "res_2_34"
  top: "res_stage_2_35_1"
  convolution_param {
    num_output: 128
    pad: 0
    kernel_size: 1
    stride: 1
    weight_filler {
      type: "msra"
    }
    bias_term: false
  }
}
layer {
  name: "bn_stage_2_35_1"
  type: "BatchNorm"
  bottom: "res_stage_2_35_1"
  top: "res_stage_2_35_1"
  batch_norm_param {
      use_global_stats: false
  }
}
layer {
  name: "scale_stage_2_35_1"  
  type: "Scale"
  bottom: "res_stage_2_35_1"
  top: "res_stage_2_35_1"
  scale_param {
	bias_term: true
  }
}
 layer {
  name: "res_stage_2_35_1_relu"
  type: "ReLU"
  bottom: "res_stage_2_35_1"
  top: "res_stage_2_35_1"
}
layer {
  name: "res_stage_2_35_2"
  type: "Convolution"
  bottom: "res_stage_2_35_1"
  top: "res_stage_2_35_2"
  convolution_param {
    num_output: 128
    pad: 1
    kernel_size: 3
    stride: 1
    weight_filler {
      type: "msra"
    }
    bias_term: false
  }
}
layer {
  name: "bn_stage_2_35_2"
  type: "BatchNorm"
  bottom: "res_stage_2_35_2"
  top: "res_stage_2_35_2"
  batch_norm_param {
      use_global_stats: false
  }
}
layer {
  name: "scale_stage_2_35_2"  
  type: "Scale"
  bottom: "res_stage_2_35_2"
  top: "res_stage_2_35_2"
  scale_param {
	bias_term: true
  }
}
 layer {
  name: "res_stage_2_35_2_relu"
  type: "ReLU"
  bottom: "res_stage_2_35_2"
  top: "res_stage_2_35_2"
}
layer {
  name: "res_stage_2_35_3"
  type: "Convolution"
  bottom: "res_stage_2_35_2"
  top: "res_stage_2_35_3"
  convolution_param {
    num_output: 512
    pad: 0
    kernel_size: 1
    stride: 1
    weight_filler {
      type: "msra"
    }
    bias_term: false
  }
}
layer {
  name: "bn_stage_2_35_3"
  type: "BatchNorm"
  bottom: "res_stage_2_35_3"
  top: "res_stage_2_35_3"
  batch_norm_param {
      use_global_stats: false
  }
}
layer {
  name: "scale_stage_2_35_3"  
  type: "Scale"
  bottom: "res_stage_2_35_3"
  top: "res_stage_2_35_3"
  scale_param {
	bias_term: true
  }
}
 layer {
  name: "res_2_35"
  type: "Eltwise"
  bottom: "res_2_34"
  bottom: "res_stage_2_35_3"
  top: "res_2_35"
  eltwise_param {
    operation: SUM
  }
}
layer {
  name: "res_2_35_relu"
  type: "ReLU"
  bottom: "res_2_35"
  top: "res_2_35"
}
layer {
  name: "res_stage_2_36_1"
  type: "Convolution"
  bottom: "res_2_35"
  top: "res_stage_2_36_1"
  convolution_param {
    num_output: 128
    pad: 0
    kernel_size: 1
    stride: 1
    weight_filler {
      type: "msra"
    }
    bias_term: false
  }
}
layer {
  name: "bn_stage_2_36_1"
  type: "BatchNorm"
  bottom: "res_stage_2_36_1"
  top: "res_stage_2_36_1"
  batch_norm_param {
      use_global_stats: false
  }
}
layer {
  name: "scale_stage_2_36_1"  
  type: "Scale"
  bottom: "res_stage_2_36_1"
  top: "res_stage_2_36_1"
  scale_param {
	bias_term: true
  }
}
 layer {
  name: "res_stage_2_36_1_relu"
  type: "ReLU"
  bottom: "res_stage_2_36_1"
  top: "res_stage_2_36_1"
}
layer {
  name: "res_stage_2_36_2"
  type: "Convolution"
  bottom: "res_stage_2_36_1"
  top: "res_stage_2_36_2"
  convolution_param {
    num_output: 128
    pad: 1
    kernel_size: 3
    stride: 1
    weight_filler {
      type: "msra"
    }
    bias_term: false
  }
}
layer {
  name: "bn_stage_2_36_2"
  type: "BatchNorm"
  bottom: "res_stage_2_36_2"
  top: "res_stage_2_36_2"
  batch_norm_param {
      use_global_stats: false
  }
}
layer {
  name: "scale_stage_2_36_2"  
  type: "Scale"
  bottom: "res_stage_2_36_2"
  top: "res_stage_2_36_2"
  scale_param {
	bias_term: true
  }
}
 layer {
  name: "res_stage_2_36_2_relu"
  type: "ReLU"
  bottom: "res_stage_2_36_2"
  top: "res_stage_2_36_2"
}
layer {
  name: "res_stage_2_36_3"
  type: "Convolution"
  bottom: "res_stage_2_36_2"
  top: "res_stage_2_36_3"
  convolution_param {
    num_output: 512
    pad: 0
    kernel_size: 1
    stride: 1
    weight_filler {
      type: "msra"
    }
    bias_term: false
  }
}
layer {
  name: "bn_stage_2_36_3"
  type: "BatchNorm"
  bottom: "res_stage_2_36_3"
  top: "res_stage_2_36_3"
  batch_norm_param {
      use_global_stats: false
  }
}
layer {
  name: "scale_stage_2_36_3"  
  type: "Scale"
  bottom: "res_stage_2_36_3"
  top: "res_stage_2_36_3"
  scale_param {
	bias_term: true
  }
}
 layer {
  name: "res_2_36"
  type: "Eltwise"
  bottom: "res_2_35"
  bottom: "res_stage_2_36_3"
  top: "res_2_36"
  eltwise_param {
    operation: SUM
  }
}
layer {
  name: "res_2_36_relu"
  type: "ReLU"
  bottom: "res_2_36"
  top: "res_2_36"
}
layer {
  name: "res_stage_2_37_1"
  type: "Convolution"
  bottom: "res_2_36"
  top: "res_stage_2_37_1"
  convolution_param {
    num_output: 128
    pad: 0
    kernel_size: 1
    stride: 1
    weight_filler {
      type: "msra"
    }
    bias_term: false
  }
}
layer {
  name: "bn_stage_2_37_1"
  type: "BatchNorm"
  bottom: "res_stage_2_37_1"
  top: "res_stage_2_37_1"
  batch_norm_param {
      use_global_stats: false
  }
}
layer {
  name: "scale_stage_2_37_1"  
  type: "Scale"
  bottom: "res_stage_2_37_1"
  top: "res_stage_2_37_1"
  scale_param {
	bias_term: true
  }
}
 layer {
  name: "res_stage_2_37_1_relu"
  type: "ReLU"
  bottom: "res_stage_2_37_1"
  top: "res_stage_2_37_1"
}
layer {
  name: "res_stage_2_37_2"
  type: "Convolution"
  bottom: "res_stage_2_37_1"
  top: "res_stage_2_37_2"
  convolution_param {
    num_output: 128
    pad: 1
    kernel_size: 3
    stride: 1
    weight_filler {
      type: "msra"
    }
    bias_term: false
  }
}
layer {
  name: "bn_stage_2_37_2"
  type: "BatchNorm"
  bottom: "res_stage_2_37_2"
  top: "res_stage_2_37_2"
  batch_norm_param {
      use_global_stats: false
  }
}
layer {
  name: "scale_stage_2_37_2"  
  type: "Scale"
  bottom: "res_stage_2_37_2"
  top: "res_stage_2_37_2"
  scale_param {
	bias_term: true
  }
}
 layer {
  name: "res_stage_2_37_2_relu"
  type: "ReLU"
  bottom: "res_stage_2_37_2"
  top: "res_stage_2_37_2"
}
layer {
  name: "res_stage_2_37_3"
  type: "Convolution"
  bottom: "res_stage_2_37_2"
  top: "res_stage_2_37_3"
  convolution_param {
    num_output: 512
    pad: 0
    kernel_size: 1
    stride: 1
    weight_filler {
      type: "msra"
    }
    bias_term: false
  }
}
layer {
  name: "bn_stage_2_37_3"
  type: "BatchNorm"
  bottom: "res_stage_2_37_3"
  top: "res_stage_2_37_3"
  batch_norm_param {
      use_global_stats: false
  }
}
layer {
  name: "scale_stage_2_37_3"  
  type: "Scale"
  bottom: "res_stage_2_37_3"
  top: "res_stage_2_37_3"
  scale_param {
	bias_term: true
  }
}
 layer {
  name: "res_2_37"
  type: "Eltwise"
  bottom: "res_2_36"
  bottom: "res_stage_2_37_3"
  top: "res_2_37"
  eltwise_param {
    operation: SUM
  }
}
layer {
  name: "res_2_37_relu"
  type: "ReLU"
  bottom: "res_2_37"
  top: "res_2_37"
}
layer {
  name: "res_stage_2_38_1"
  type: "Convolution"
  bottom: "res_2_37"
  top: "res_stage_2_38_1"
  convolution_param {
    num_output: 128
    pad: 0
    kernel_size: 1
    stride: 1
    weight_filler {
      type: "msra"
    }
    bias_term: false
  }
}
layer {
  name: "bn_stage_2_38_1"
  type: "BatchNorm"
  bottom: "res_stage_2_38_1"
  top: "res_stage_2_38_1"
  batch_norm_param {
      use_global_stats: false
  }
}
layer {
  name: "scale_stage_2_38_1"  
  type: "Scale"
  bottom: "res_stage_2_38_1"
  top: "res_stage_2_38_1"
  scale_param {
	bias_term: true
  }
}
 layer {
  name: "res_stage_2_38_1_relu"
  type: "ReLU"
  bottom: "res_stage_2_38_1"
  top: "res_stage_2_38_1"
}
layer {
  name: "res_stage_2_38_2"
  type: "Convolution"
  bottom: "res_stage_2_38_1"
  top: "res_stage_2_38_2"
  convolution_param {
    num_output: 128
    pad: 1
    kernel_size: 3
    stride: 1
    weight_filler {
      type: "msra"
    }
    bias_term: false
  }
}
layer {
  name: "bn_stage_2_38_2"
  type: "BatchNorm"
  bottom: "res_stage_2_38_2"
  top: "res_stage_2_38_2"
  batch_norm_param {
      use_global_stats: false
  }
}
layer {
  name: "scale_stage_2_38_2"  
  type: "Scale"
  bottom: "res_stage_2_38_2"
  top: "res_stage_2_38_2"
  scale_param {
	bias_term: true
  }
}
 layer {
  name: "res_stage_2_38_2_relu"
  type: "ReLU"
  bottom: "res_stage_2_38_2"
  top: "res_stage_2_38_2"
}
layer {
  name: "res_stage_2_38_3"
  type: "Convolution"
  bottom: "res_stage_2_38_2"
  top: "res_stage_2_38_3"
  convolution_param {
    num_output: 512
    pad: 0
    kernel_size: 1
    stride: 1
    weight_filler {
      type: "msra"
    }
    bias_term: false
  }
}
layer {
  name: "bn_stage_2_38_3"
  type: "BatchNorm"
  bottom: "res_stage_2_38_3"
  top: "res_stage_2_38_3"
  batch_norm_param {
      use_global_stats: false
  }
}
layer {
  name: "scale_stage_2_38_3"  
  type: "Scale"
  bottom: "res_stage_2_38_3"
  top: "res_stage_2_38_3"
  scale_param {
	bias_term: true
  }
}
 layer {
  name: "res_2_38"
  type: "Eltwise"
  bottom: "res_2_37"
  bottom: "res_stage_2_38_3"
  top: "res_2_38"
  eltwise_param {
    operation: SUM
  }
}
layer {
  name: "res_2_38_relu"
  type: "ReLU"
  bottom: "res_2_38"
  top: "res_2_38"
}
layer {
  name: "res_stage_2_39_1"
  type: "Convolution"
  bottom: "res_2_38"
  top: "res_stage_2_39_1"
  convolution_param {
    num_output: 128
    pad: 0
    kernel_size: 1
    stride: 1
    weight_filler {
      type: "msra"
    }
    bias_term: false
  }
}
layer {
  name: "bn_stage_2_39_1"
  type: "BatchNorm"
  bottom: "res_stage_2_39_1"
  top: "res_stage_2_39_1"
  batch_norm_param {
      use_global_stats: false
  }
}
layer {
  name: "scale_stage_2_39_1"  
  type: "Scale"
  bottom: "res_stage_2_39_1"
  top: "res_stage_2_39_1"
  scale_param {
	bias_term: true
  }
}
 layer {
  name: "res_stage_2_39_1_relu"
  type: "ReLU"
  bottom: "res_stage_2_39_1"
  top: "res_stage_2_39_1"
}
layer {
  name: "res_stage_2_39_2"
  type: "Convolution"
  bottom: "res_stage_2_39_1"
  top: "res_stage_2_39_2"
  convolution_param {
    num_output: 128
    pad: 1
    kernel_size: 3
    stride: 1
    weight_filler {
      type: "msra"
    }
    bias_term: false
  }
}
layer {
  name: "bn_stage_2_39_2"
  type: "BatchNorm"
  bottom: "res_stage_2_39_2"
  top: "res_stage_2_39_2"
  batch_norm_param {
      use_global_stats: false
  }
}
layer {
  name: "scale_stage_2_39_2"  
  type: "Scale"
  bottom: "res_stage_2_39_2"
  top: "res_stage_2_39_2"
  scale_param {
	bias_term: true
  }
}
 layer {
  name: "res_stage_2_39_2_relu"
  type: "ReLU"
  bottom: "res_stage_2_39_2"
  top: "res_stage_2_39_2"
}
layer {
  name: "res_stage_2_39_3"
  type: "Convolution"
  bottom: "res_stage_2_39_2"
  top: "res_stage_2_39_3"
  convolution_param {
    num_output: 512
    pad: 0
    kernel_size: 1
    stride: 1
    weight_filler {
      type: "msra"
    }
    bias_term: false
  }
}
layer {
  name: "bn_stage_2_39_3"
  type: "BatchNorm"
  bottom: "res_stage_2_39_3"
  top: "res_stage_2_39_3"
  batch_norm_param {
      use_global_stats: false
  }
}
layer {
  name: "scale_stage_2_39_3"  
  type: "Scale"
  bottom: "res_stage_2_39_3"
  top: "res_stage_2_39_3"
  scale_param {
	bias_term: true
  }
}
 layer {
  name: "res_2_39"
  type: "Eltwise"
  bottom: "res_2_38"
  bottom: "res_stage_2_39_3"
  top: "res_2_39"
  eltwise_param {
    operation: SUM
  }
}
layer {
  name: "res_2_39_relu"
  type: "ReLU"
  bottom: "res_2_39"
  top: "res_2_39"
}
layer {
  name: "res_stage_2_40_1"
  type: "Convolution"
  bottom: "res_2_39"
  top: "res_stage_2_40_1"
  convolution_param {
    num_output: 128
    pad: 0
    kernel_size: 1
    stride: 1
    weight_filler {
      type: "msra"
    }
    bias_term: false
  }
}
layer {
  name: "bn_stage_2_40_1"
  type: "BatchNorm"
  bottom: "res_stage_2_40_1"
  top: "res_stage_2_40_1"
  batch_norm_param {
      use_global_stats: false
  }
}
layer {
  name: "scale_stage_2_40_1"  
  type: "Scale"
  bottom: "res_stage_2_40_1"
  top: "res_stage_2_40_1"
  scale_param {
	bias_term: true
  }
}
 layer {
  name: "res_stage_2_40_1_relu"
  type: "ReLU"
  bottom: "res_stage_2_40_1"
  top: "res_stage_2_40_1"
}
layer {
  name: "res_stage_2_40_2"
  type: "Convolution"
  bottom: "res_stage_2_40_1"
  top: "res_stage_2_40_2"
  convolution_param {
    num_output: 128
    pad: 1
    kernel_size: 3
    stride: 1
    weight_filler {
      type: "msra"
    }
    bias_term: false
  }
}
layer {
  name: "bn_stage_2_40_2"
  type: "BatchNorm"
  bottom: "res_stage_2_40_2"
  top: "res_stage_2_40_2"
  batch_norm_param {
      use_global_stats: false
  }
}
layer {
  name: "scale_stage_2_40_2"  
  type: "Scale"
  bottom: "res_stage_2_40_2"
  top: "res_stage_2_40_2"
  scale_param {
	bias_term: true
  }
}
 layer {
  name: "res_stage_2_40_2_relu"
  type: "ReLU"
  bottom: "res_stage_2_40_2"
  top: "res_stage_2_40_2"
}
layer {
  name: "res_stage_2_40_3"
  type: "Convolution"
  bottom: "res_stage_2_40_2"
  top: "res_stage_2_40_3"
  convolution_param {
    num_output: 512
    pad: 0
    kernel_size: 1
    stride: 1
    weight_filler {
      type: "msra"
    }
    bias_term: false
  }
}
layer {
  name: "bn_stage_2_40_3"
  type: "BatchNorm"
  bottom: "res_stage_2_40_3"
  top: "res_stage_2_40_3"
  batch_norm_param {
      use_global_stats: false
  }
}
layer {
  name: "scale_stage_2_40_3"  
  type: "Scale"
  bottom: "res_stage_2_40_3"
  top: "res_stage_2_40_3"
  scale_param {
	bias_term: true
  }
}
 layer {
  name: "res_2_40"
  type: "Eltwise"
  bottom: "res_2_39"
  bottom: "res_stage_2_40_3"
  top: "res_2_40"
  eltwise_param {
    operation: SUM
  }
}
layer {
  name: "res_2_40_relu"
  type: "ReLU"
  bottom: "res_2_40"
  top: "res_2_40"
}
layer {
  name: "res_stage_2_41_1"
  type: "Convolution"
  bottom: "res_2_40"
  top: "res_stage_2_41_1"
  convolution_param {
    num_output: 128
    pad: 0
    kernel_size: 1
    stride: 1
    weight_filler {
      type: "msra"
    }
    bias_term: false
  }
}
layer {
  name: "bn_stage_2_41_1"
  type: "BatchNorm"
  bottom: "res_stage_2_41_1"
  top: "res_stage_2_41_1"
  batch_norm_param {
      use_global_stats: false
  }
}
layer {
  name: "scale_stage_2_41_1"  
  type: "Scale"
  bottom: "res_stage_2_41_1"
  top: "res_stage_2_41_1"
  scale_param {
	bias_term: true
  }
}
 layer {
  name: "res_stage_2_41_1_relu"
  type: "ReLU"
  bottom: "res_stage_2_41_1"
  top: "res_stage_2_41_1"
}
layer {
  name: "res_stage_2_41_2"
  type: "Convolution"
  bottom: "res_stage_2_41_1"
  top: "res_stage_2_41_2"
  convolution_param {
    num_output: 128
    pad: 1
    kernel_size: 3
    stride: 1
    weight_filler {
      type: "msra"
    }
    bias_term: false
  }
}
layer {
  name: "bn_stage_2_41_2"
  type: "BatchNorm"
  bottom: "res_stage_2_41_2"
  top: "res_stage_2_41_2"
  batch_norm_param {
      use_global_stats: false
  }
}
layer {
  name: "scale_stage_2_41_2"  
  type: "Scale"
  bottom: "res_stage_2_41_2"
  top: "res_stage_2_41_2"
  scale_param {
	bias_term: true
  }
}
 layer {
  name: "res_stage_2_41_2_relu"
  type: "ReLU"
  bottom: "res_stage_2_41_2"
  top: "res_stage_2_41_2"
}
layer {
  name: "res_stage_2_41_3"
  type: "Convolution"
  bottom: "res_stage_2_41_2"
  top: "res_stage_2_41_3"
  convolution_param {
    num_output: 512
    pad: 0
    kernel_size: 1
    stride: 1
    weight_filler {
      type: "msra"
    }
    bias_term: false
  }
}
layer {
  name: "bn_stage_2_41_3"
  type: "BatchNorm"
  bottom: "res_stage_2_41_3"
  top: "res_stage_2_41_3"
  batch_norm_param {
      use_global_stats: false
  }
}
layer {
  name: "scale_stage_2_41_3"  
  type: "Scale"
  bottom: "res_stage_2_41_3"
  top: "res_stage_2_41_3"
  scale_param {
	bias_term: true
  }
}
 layer {
  name: "res_2_41"
  type: "Eltwise"
  bottom: "res_2_40"
  bottom: "res_stage_2_41_3"
  top: "res_2_41"
  eltwise_param {
    operation: SUM
  }
}
layer {
  name: "res_2_41_relu"
  type: "ReLU"
  bottom: "res_2_41"
  top: "res_2_41"
}
layer {
  name: "res_stage_2_42_1"
  type: "Convolution"
  bottom: "res_2_41"
  top: "res_stage_2_42_1"
  convolution_param {
    num_output: 128
    pad: 0
    kernel_size: 1
    stride: 1
    weight_filler {
      type: "msra"
    }
    bias_term: false
  }
}
layer {
  name: "bn_stage_2_42_1"
  type: "BatchNorm"
  bottom: "res_stage_2_42_1"
  top: "res_stage_2_42_1"
  batch_norm_param {
      use_global_stats: false
  }
}
layer {
  name: "scale_stage_2_42_1"  
  type: "Scale"
  bottom: "res_stage_2_42_1"
  top: "res_stage_2_42_1"
  scale_param {
	bias_term: true
  }
}
 layer {
  name: "res_stage_2_42_1_relu"
  type: "ReLU"
  bottom: "res_stage_2_42_1"
  top: "res_stage_2_42_1"
}
layer {
  name: "res_stage_2_42_2"
  type: "Convolution"
  bottom: "res_stage_2_42_1"
  top: "res_stage_2_42_2"
  convolution_param {
    num_output: 128
    pad: 1
    kernel_size: 3
    stride: 1
    weight_filler {
      type: "msra"
    }
    bias_term: false
  }
}
layer {
  name: "bn_stage_2_42_2"
  type: "BatchNorm"
  bottom: "res_stage_2_42_2"
  top: "res_stage_2_42_2"
  batch_norm_param {
      use_global_stats: false
  }
}
layer {
  name: "scale_stage_2_42_2"  
  type: "Scale"
  bottom: "res_stage_2_42_2"
  top: "res_stage_2_42_2"
  scale_param {
	bias_term: true
  }
}
 layer {
  name: "res_stage_2_42_2_relu"
  type: "ReLU"
  bottom: "res_stage_2_42_2"
  top: "res_stage_2_42_2"
}
layer {
  name: "res_stage_2_42_3"
  type: "Convolution"
  bottom: "res_stage_2_42_2"
  top: "res_stage_2_42_3"
  convolution_param {
    num_output: 512
    pad: 0
    kernel_size: 1
    stride: 1
    weight_filler {
      type: "msra"
    }
    bias_term: false
  }
}
layer {
  name: "bn_stage_2_42_3"
  type: "BatchNorm"
  bottom: "res_stage_2_42_3"
  top: "res_stage_2_42_3"
  batch_norm_param {
      use_global_stats: false
  }
}
layer {
  name: "scale_stage_2_42_3"  
  type: "Scale"
  bottom: "res_stage_2_42_3"
  top: "res_stage_2_42_3"
  scale_param {
	bias_term: true
  }
}
 layer {
  name: "res_2_42"
  type: "Eltwise"
  bottom: "res_2_41"
  bottom: "res_stage_2_42_3"
  top: "res_2_42"
  eltwise_param {
    operation: SUM
  }
}
layer {
  name: "res_2_42_relu"
  type: "ReLU"
  bottom: "res_2_42"
  top: "res_2_42"
}
layer {
  name: "res_stage_2_43_1"
  type: "Convolution"
  bottom: "res_2_42"
  top: "res_stage_2_43_1"
  convolution_param {
    num_output: 128
    pad: 0
    kernel_size: 1
    stride: 1
    weight_filler {
      type: "msra"
    }
    bias_term: false
  }
}
layer {
  name: "bn_stage_2_43_1"
  type: "BatchNorm"
  bottom: "res_stage_2_43_1"
  top: "res_stage_2_43_1"
  batch_norm_param {
      use_global_stats: false
  }
}
layer {
  name: "scale_stage_2_43_1"  
  type: "Scale"
  bottom: "res_stage_2_43_1"
  top: "res_stage_2_43_1"
  scale_param {
	bias_term: true
  }
}
 layer {
  name: "res_stage_2_43_1_relu"
  type: "ReLU"
  bottom: "res_stage_2_43_1"
  top: "res_stage_2_43_1"
}
layer {
  name: "res_stage_2_43_2"
  type: "Convolution"
  bottom: "res_stage_2_43_1"
  top: "res_stage_2_43_2"
  convolution_param {
    num_output: 128
    pad: 1
    kernel_size: 3
    stride: 1
    weight_filler {
      type: "msra"
    }
    bias_term: false
  }
}
layer {
  name: "bn_stage_2_43_2"
  type: "BatchNorm"
  bottom: "res_stage_2_43_2"
  top: "res_stage_2_43_2"
  batch_norm_param {
      use_global_stats: false
  }
}
layer {
  name: "scale_stage_2_43_2"  
  type: "Scale"
  bottom: "res_stage_2_43_2"
  top: "res_stage_2_43_2"
  scale_param {
	bias_term: true
  }
}
 layer {
  name: "res_stage_2_43_2_relu"
  type: "ReLU"
  bottom: "res_stage_2_43_2"
  top: "res_stage_2_43_2"
}
layer {
  name: "res_stage_2_43_3"
  type: "Convolution"
  bottom: "res_stage_2_43_2"
  top: "res_stage_2_43_3"
  convolution_param {
    num_output: 512
    pad: 0
    kernel_size: 1
    stride: 1
    weight_filler {
      type: "msra"
    }
    bias_term: false
  }
}
layer {
  name: "bn_stage_2_43_3"
  type: "BatchNorm"
  bottom: "res_stage_2_43_3"
  top: "res_stage_2_43_3"
  batch_norm_param {
      use_global_stats: false
  }
}
layer {
  name: "scale_stage_2_43_3"  
  type: "Scale"
  bottom: "res_stage_2_43_3"
  top: "res_stage_2_43_3"
  scale_param {
	bias_term: true
  }
}
 layer {
  name: "res_2_43"
  type: "Eltwise"
  bottom: "res_2_42"
  bottom: "res_stage_2_43_3"
  top: "res_2_43"
  eltwise_param {
    operation: SUM
  }
}
layer {
  name: "res_2_43_relu"
  type: "ReLU"
  bottom: "res_2_43"
  top: "res_2_43"
}
layer {
  name: "res_stage_2_44_1"
  type: "Convolution"
  bottom: "res_2_43"
  top: "res_stage_2_44_1"
  convolution_param {
    num_output: 128
    pad: 0
    kernel_size: 1
    stride: 1
    weight_filler {
      type: "msra"
    }
    bias_term: false
  }
}
layer {
  name: "bn_stage_2_44_1"
  type: "BatchNorm"
  bottom: "res_stage_2_44_1"
  top: "res_stage_2_44_1"
  batch_norm_param {
      use_global_stats: false
  }
}
layer {
  name: "scale_stage_2_44_1"  
  type: "Scale"
  bottom: "res_stage_2_44_1"
  top: "res_stage_2_44_1"
  scale_param {
	bias_term: true
  }
}
 layer {
  name: "res_stage_2_44_1_relu"
  type: "ReLU"
  bottom: "res_stage_2_44_1"
  top: "res_stage_2_44_1"
}
layer {
  name: "res_stage_2_44_2"
  type: "Convolution"
  bottom: "res_stage_2_44_1"
  top: "res_stage_2_44_2"
  convolution_param {
    num_output: 128
    pad: 1
    kernel_size: 3
    stride: 1
    weight_filler {
      type: "msra"
    }
    bias_term: false
  }
}
layer {
  name: "bn_stage_2_44_2"
  type: "BatchNorm"
  bottom: "res_stage_2_44_2"
  top: "res_stage_2_44_2"
  batch_norm_param {
      use_global_stats: false
  }
}
layer {
  name: "scale_stage_2_44_2"  
  type: "Scale"
  bottom: "res_stage_2_44_2"
  top: "res_stage_2_44_2"
  scale_param {
	bias_term: true
  }
}
 layer {
  name: "res_stage_2_44_2_relu"
  type: "ReLU"
  bottom: "res_stage_2_44_2"
  top: "res_stage_2_44_2"
}
layer {
  name: "res_stage_2_44_3"
  type: "Convolution"
  bottom: "res_stage_2_44_2"
  top: "res_stage_2_44_3"
  convolution_param {
    num_output: 512
    pad: 0
    kernel_size: 1
    stride: 1
    weight_filler {
      type: "msra"
    }
    bias_term: false
  }
}
layer {
  name: "bn_stage_2_44_3"
  type: "BatchNorm"
  bottom: "res_stage_2_44_3"
  top: "res_stage_2_44_3"
  batch_norm_param {
      use_global_stats: false
  }
}
layer {
  name: "scale_stage_2_44_3"  
  type: "Scale"
  bottom: "res_stage_2_44_3"
  top: "res_stage_2_44_3"
  scale_param {
	bias_term: true
  }
}
 layer {
  name: "res_2_44"
  type: "Eltwise"
  bottom: "res_2_43"
  bottom: "res_stage_2_44_3"
  top: "res_2_44"
  eltwise_param {
    operation: SUM
  }
}
layer {
  name: "res_2_44_relu"
  type: "ReLU"
  bottom: "res_2_44"
  top: "res_2_44"
}
layer {
  name: "res_stage_2_45_1"
  type: "Convolution"
  bottom: "res_2_44"
  top: "res_stage_2_45_1"
  convolution_param {
    num_output: 128
    pad: 0
    kernel_size: 1
    stride: 1
    weight_filler {
      type: "msra"
    }
    bias_term: false
  }
}
layer {
  name: "bn_stage_2_45_1"
  type: "BatchNorm"
  bottom: "res_stage_2_45_1"
  top: "res_stage_2_45_1"
  batch_norm_param {
      use_global_stats: false
  }
}
layer {
  name: "scale_stage_2_45_1"  
  type: "Scale"
  bottom: "res_stage_2_45_1"
  top: "res_stage_2_45_1"
  scale_param {
	bias_term: true
  }
}
 layer {
  name: "res_stage_2_45_1_relu"
  type: "ReLU"
  bottom: "res_stage_2_45_1"
  top: "res_stage_2_45_1"
}
layer {
  name: "res_stage_2_45_2"
  type: "Convolution"
  bottom: "res_stage_2_45_1"
  top: "res_stage_2_45_2"
  convolution_param {
    num_output: 128
    pad: 1
    kernel_size: 3
    stride: 1
    weight_filler {
      type: "msra"
    }
    bias_term: false
  }
}
layer {
  name: "bn_stage_2_45_2"
  type: "BatchNorm"
  bottom: "res_stage_2_45_2"
  top: "res_stage_2_45_2"
  batch_norm_param {
      use_global_stats: false
  }
}
layer {
  name: "scale_stage_2_45_2"  
  type: "Scale"
  bottom: "res_stage_2_45_2"
  top: "res_stage_2_45_2"
  scale_param {
	bias_term: true
  }
}
 layer {
  name: "res_stage_2_45_2_relu"
  type: "ReLU"
  bottom: "res_stage_2_45_2"
  top: "res_stage_2_45_2"
}
layer {
  name: "res_stage_2_45_3"
  type: "Convolution"
  bottom: "res_stage_2_45_2"
  top: "res_stage_2_45_3"
  convolution_param {
    num_output: 512
    pad: 0
    kernel_size: 1
    stride: 1
    weight_filler {
      type: "msra"
    }
    bias_term: false
  }
}
layer {
  name: "bn_stage_2_45_3"
  type: "BatchNorm"
  bottom: "res_stage_2_45_3"
  top: "res_stage_2_45_3"
  batch_norm_param {
      use_global_stats: false
  }
}
layer {
  name: "scale_stage_2_45_3"  
  type: "Scale"
  bottom: "res_stage_2_45_3"
  top: "res_stage_2_45_3"
  scale_param {
	bias_term: true
  }
}
 layer {
  name: "res_2_45"
  type: "Eltwise"
  bottom: "res_2_44"
  bottom: "res_stage_2_45_3"
  top: "res_2_45"
  eltwise_param {
    operation: SUM
  }
}
layer {
  name: "res_2_45_relu"
  type: "ReLU"
  bottom: "res_2_45"
  top: "res_2_45"
}
layer {
  name: "res_stage_2_46_1"
  type: "Convolution"
  bottom: "res_2_45"
  top: "res_stage_2_46_1"
  convolution_param {
    num_output: 128
    pad: 0
    kernel_size: 1
    stride: 1
    weight_filler {
      type: "msra"
    }
    bias_term: false
  }
}
layer {
  name: "bn_stage_2_46_1"
  type: "BatchNorm"
  bottom: "res_stage_2_46_1"
  top: "res_stage_2_46_1"
  batch_norm_param {
      use_global_stats: false
  }
}
layer {
  name: "scale_stage_2_46_1"  
  type: "Scale"
  bottom: "res_stage_2_46_1"
  top: "res_stage_2_46_1"
  scale_param {
	bias_term: true
  }
}
 layer {
  name: "res_stage_2_46_1_relu"
  type: "ReLU"
  bottom: "res_stage_2_46_1"
  top: "res_stage_2_46_1"
}
layer {
  name: "res_stage_2_46_2"
  type: "Convolution"
  bottom: "res_stage_2_46_1"
  top: "res_stage_2_46_2"
  convolution_param {
    num_output: 128
    pad: 1
    kernel_size: 3
    stride: 1
    weight_filler {
      type: "msra"
    }
    bias_term: false
  }
}
layer {
  name: "bn_stage_2_46_2"
  type: "BatchNorm"
  bottom: "res_stage_2_46_2"
  top: "res_stage_2_46_2"
  batch_norm_param {
      use_global_stats: false
  }
}
layer {
  name: "scale_stage_2_46_2"  
  type: "Scale"
  bottom: "res_stage_2_46_2"
  top: "res_stage_2_46_2"
  scale_param {
	bias_term: true
  }
}
 layer {
  name: "res_stage_2_46_2_relu"
  type: "ReLU"
  bottom: "res_stage_2_46_2"
  top: "res_stage_2_46_2"
}
layer {
  name: "res_stage_2_46_3"
  type: "Convolution"
  bottom: "res_stage_2_46_2"
  top: "res_stage_2_46_3"
  convolution_param {
    num_output: 512
    pad: 0
    kernel_size: 1
    stride: 1
    weight_filler {
      type: "msra"
    }
    bias_term: false
  }
}
layer {
  name: "bn_stage_2_46_3"
  type: "BatchNorm"
  bottom: "res_stage_2_46_3"
  top: "res_stage_2_46_3"
  batch_norm_param {
      use_global_stats: false
  }
}
layer {
  name: "scale_stage_2_46_3"  
  type: "Scale"
  bottom: "res_stage_2_46_3"
  top: "res_stage_2_46_3"
  scale_param {
	bias_term: true
  }
}
 layer {
  name: "res_2_46"
  type: "Eltwise"
  bottom: "res_2_45"
  bottom: "res_stage_2_46_3"
  top: "res_2_46"
  eltwise_param {
    operation: SUM
  }
}
layer {
  name: "res_2_46_relu"
  type: "ReLU"
  bottom: "res_2_46"
  top: "res_2_46"
}
layer {
  name: "res_stage_2_47_1"
  type: "Convolution"
  bottom: "res_2_46"
  top: "res_stage_2_47_1"
  convolution_param {
    num_output: 128
    pad: 0
    kernel_size: 1
    stride: 1
    weight_filler {
      type: "msra"
    }
    bias_term: false
  }
}
layer {
  name: "bn_stage_2_47_1"
  type: "BatchNorm"
  bottom: "res_stage_2_47_1"
  top: "res_stage_2_47_1"
  batch_norm_param {
      use_global_stats: false
  }
}
layer {
  name: "scale_stage_2_47_1"  
  type: "Scale"
  bottom: "res_stage_2_47_1"
  top: "res_stage_2_47_1"
  scale_param {
	bias_term: true
  }
}
 layer {
  name: "res_stage_2_47_1_relu"
  type: "ReLU"
  bottom: "res_stage_2_47_1"
  top: "res_stage_2_47_1"
}
layer {
  name: "res_stage_2_47_2"
  type: "Convolution"
  bottom: "res_stage_2_47_1"
  top: "res_stage_2_47_2"
  convolution_param {
    num_output: 128
    pad: 1
    kernel_size: 3
    stride: 1
    weight_filler {
      type: "msra"
    }
    bias_term: false
  }
}
layer {
  name: "bn_stage_2_47_2"
  type: "BatchNorm"
  bottom: "res_stage_2_47_2"
  top: "res_stage_2_47_2"
  batch_norm_param {
      use_global_stats: false
  }
}
layer {
  name: "scale_stage_2_47_2"  
  type: "Scale"
  bottom: "res_stage_2_47_2"
  top: "res_stage_2_47_2"
  scale_param {
	bias_term: true
  }
}
 layer {
  name: "res_stage_2_47_2_relu"
  type: "ReLU"
  bottom: "res_stage_2_47_2"
  top: "res_stage_2_47_2"
}
layer {
  name: "res_stage_2_47_3"
  type: "Convolution"
  bottom: "res_stage_2_47_2"
  top: "res_stage_2_47_3"
  convolution_param {
    num_output: 512
    pad: 0
    kernel_size: 1
    stride: 1
    weight_filler {
      type: "msra"
    }
    bias_term: false
  }
}
layer {
  name: "bn_stage_2_47_3"
  type: "BatchNorm"
  bottom: "res_stage_2_47_3"
  top: "res_stage_2_47_3"
  batch_norm_param {
      use_global_stats: false
  }
}
layer {
  name: "scale_stage_2_47_3"  
  type: "Scale"
  bottom: "res_stage_2_47_3"
  top: "res_stage_2_47_3"
  scale_param {
	bias_term: true
  }
}
 layer {
  name: "res_2_47"
  type: "Eltwise"
  bottom: "res_2_46"
  bottom: "res_stage_2_47_3"
  top: "res_2_47"
  eltwise_param {
    operation: SUM
  }
}
layer {
  name: "res_2_47_relu"
  type: "ReLU"
  bottom: "res_2_47"
  top: "res_2_47"
}
layer {
  name: "res_stage_2_48_1"
  type: "Convolution"
  bottom: "res_2_47"
  top: "res_stage_2_48_1"
  convolution_param {
    num_output: 128
    pad: 0
    kernel_size: 1
    stride: 1
    weight_filler {
      type: "msra"
    }
    bias_term: false
  }
}
layer {
  name: "bn_stage_2_48_1"
  type: "BatchNorm"
  bottom: "res_stage_2_48_1"
  top: "res_stage_2_48_1"
  batch_norm_param {
      use_global_stats: false
  }
}
layer {
  name: "scale_stage_2_48_1"  
  type: "Scale"
  bottom: "res_stage_2_48_1"
  top: "res_stage_2_48_1"
  scale_param {
	bias_term: true
  }
}
 layer {
  name: "res_stage_2_48_1_relu"
  type: "ReLU"
  bottom: "res_stage_2_48_1"
  top: "res_stage_2_48_1"
}
layer {
  name: "res_stage_2_48_2"
  type: "Convolution"
  bottom: "res_stage_2_48_1"
  top: "res_stage_2_48_2"
  convolution_param {
    num_output: 128
    pad: 1
    kernel_size: 3
    stride: 1
    weight_filler {
      type: "msra"
    }
    bias_term: false
  }
}
layer {
  name: "bn_stage_2_48_2"
  type: "BatchNorm"
  bottom: "res_stage_2_48_2"
  top: "res_stage_2_48_2"
  batch_norm_param {
      use_global_stats: false
  }
}
layer {
  name: "scale_stage_2_48_2"  
  type: "Scale"
  bottom: "res_stage_2_48_2"
  top: "res_stage_2_48_2"
  scale_param {
	bias_term: true
  }
}
 layer {
  name: "res_stage_2_48_2_relu"
  type: "ReLU"
  bottom: "res_stage_2_48_2"
  top: "res_stage_2_48_2"
}
layer {
  name: "res_stage_2_48_3"
  type: "Convolution"
  bottom: "res_stage_2_48_2"
  top: "res_stage_2_48_3"
  convolution_param {
    num_output: 512
    pad: 0
    kernel_size: 1
    stride: 1
    weight_filler {
      type: "msra"
    }
    bias_term: false
  }
}
layer {
  name: "bn_stage_2_48_3"
  type: "BatchNorm"
  bottom: "res_stage_2_48_3"
  top: "res_stage_2_48_3"
  batch_norm_param {
      use_global_stats: false
  }
}
layer {
  name: "scale_stage_2_48_3"  
  type: "Scale"
  bottom: "res_stage_2_48_3"
  top: "res_stage_2_48_3"
  scale_param {
	bias_term: true
  }
}
 layer {
  name: "res_2_48"
  type: "Eltwise"
  bottom: "res_2_47"
  bottom: "res_stage_2_48_3"
  top: "res_2_48"
  eltwise_param {
    operation: SUM
  }
}
layer {
  name: "res_2_48_relu"
  type: "ReLU"
  bottom: "res_2_48"
  top: "res_2_48"
}
layer {
  name: "res_stage_2_49_1"
  type: "Convolution"
  bottom: "res_2_48"
  top: "res_stage_2_49_1"
  convolution_param {
    num_output: 128
    pad: 0
    kernel_size: 1
    stride: 1
    weight_filler {
      type: "msra"
    }
    bias_term: false
  }
}
layer {
  name: "bn_stage_2_49_1"
  type: "BatchNorm"
  bottom: "res_stage_2_49_1"
  top: "res_stage_2_49_1"
  batch_norm_param {
      use_global_stats: false
  }
}
layer {
  name: "scale_stage_2_49_1"  
  type: "Scale"
  bottom: "res_stage_2_49_1"
  top: "res_stage_2_49_1"
  scale_param {
	bias_term: true
  }
}
 layer {
  name: "res_stage_2_49_1_relu"
  type: "ReLU"
  bottom: "res_stage_2_49_1"
  top: "res_stage_2_49_1"
}
layer {
  name: "res_stage_2_49_2"
  type: "Convolution"
  bottom: "res_stage_2_49_1"
  top: "res_stage_2_49_2"
  convolution_param {
    num_output: 128
    pad: 1
    kernel_size: 3
    stride: 1
    weight_filler {
      type: "msra"
    }
    bias_term: false
  }
}
layer {
  name: "bn_stage_2_49_2"
  type: "BatchNorm"
  bottom: "res_stage_2_49_2"
  top: "res_stage_2_49_2"
  batch_norm_param {
      use_global_stats: false
  }
}
layer {
  name: "scale_stage_2_49_2"  
  type: "Scale"
  bottom: "res_stage_2_49_2"
  top: "res_stage_2_49_2"
  scale_param {
	bias_term: true
  }
}
 layer {
  name: "res_stage_2_49_2_relu"
  type: "ReLU"
  bottom: "res_stage_2_49_2"
  top: "res_stage_2_49_2"
}
layer {
  name: "res_stage_2_49_3"
  type: "Convolution"
  bottom: "res_stage_2_49_2"
  top: "res_stage_2_49_3"
  convolution_param {
    num_output: 512
    pad: 0
    kernel_size: 1
    stride: 1
    weight_filler {
      type: "msra"
    }
    bias_term: false
  }
}
layer {
  name: "bn_stage_2_49_3"
  type: "BatchNorm"
  bottom: "res_stage_2_49_3"
  top: "res_stage_2_49_3"
  batch_norm_param {
      use_global_stats: false
  }
}
layer {
  name: "scale_stage_2_49_3"  
  type: "Scale"
  bottom: "res_stage_2_49_3"
  top: "res_stage_2_49_3"
  scale_param {
	bias_term: true
  }
}
 layer {
  name: "res_2_49"
  type: "Eltwise"
  bottom: "res_2_48"
  bottom: "res_stage_2_49_3"
  top: "res_2_49"
  eltwise_param {
    operation: SUM
  }
}
layer {
  name: "res_2_49_relu"
  type: "ReLU"
  bottom: "res_2_49"
  top: "res_2_49"
}
layer {
  name: "res_stage_2_50_1"
  type: "Convolution"
  bottom: "res_2_49"
  top: "res_stage_2_50_1"
  convolution_param {
    num_output: 128
    pad: 0
    kernel_size: 1
    stride: 1
    weight_filler {
      type: "msra"
    }
    bias_term: false
  }
}
layer {
  name: "bn_stage_2_50_1"
  type: "BatchNorm"
  bottom: "res_stage_2_50_1"
  top: "res_stage_2_50_1"
  batch_norm_param {
      use_global_stats: false
  }
}
layer {
  name: "scale_stage_2_50_1"  
  type: "Scale"
  bottom: "res_stage_2_50_1"
  top: "res_stage_2_50_1"
  scale_param {
	bias_term: true
  }
}
 layer {
  name: "res_stage_2_50_1_relu"
  type: "ReLU"
  bottom: "res_stage_2_50_1"
  top: "res_stage_2_50_1"
}
layer {
  name: "res_stage_2_50_2"
  type: "Convolution"
  bottom: "res_stage_2_50_1"
  top: "res_stage_2_50_2"
  convolution_param {
    num_output: 128
    pad: 1
    kernel_size: 3
    stride: 1
    weight_filler {
      type: "msra"
    }
    bias_term: false
  }
}
layer {
  name: "bn_stage_2_50_2"
  type: "BatchNorm"
  bottom: "res_stage_2_50_2"
  top: "res_stage_2_50_2"
  batch_norm_param {
      use_global_stats: false
  }
}
layer {
  name: "scale_stage_2_50_2"  
  type: "Scale"
  bottom: "res_stage_2_50_2"
  top: "res_stage_2_50_2"
  scale_param {
	bias_term: true
  }
}
 layer {
  name: "res_stage_2_50_2_relu"
  type: "ReLU"
  bottom: "res_stage_2_50_2"
  top: "res_stage_2_50_2"
}
layer {
  name: "res_stage_2_50_3"
  type: "Convolution"
  bottom: "res_stage_2_50_2"
  top: "res_stage_2_50_3"
  convolution_param {
    num_output: 512
    pad: 0
    kernel_size: 1
    stride: 1
    weight_filler {
      type: "msra"
    }
    bias_term: false
  }
}
layer {
  name: "bn_stage_2_50_3"
  type: "BatchNorm"
  bottom: "res_stage_2_50_3"
  top: "res_stage_2_50_3"
  batch_norm_param {
      use_global_stats: false
  }
}
layer {
  name: "scale_stage_2_50_3"  
  type: "Scale"
  bottom: "res_stage_2_50_3"
  top: "res_stage_2_50_3"
  scale_param {
	bias_term: true
  }
}
 layer {
  name: "res_2_50"
  type: "Eltwise"
  bottom: "res_2_49"
  bottom: "res_stage_2_50_3"
  top: "res_2_50"
  eltwise_param {
    operation: SUM
  }
}
layer {
  name: "res_2_50_relu"
  type: "ReLU"
  bottom: "res_2_50"
  top: "res_2_50"
}
layer {
  name: "res_stage_2_51_1"
  type: "Convolution"
  bottom: "res_2_50"
  top: "res_stage_2_51_1"
  convolution_param {
    num_output: 128
    pad: 0
    kernel_size: 1
    stride: 1
    weight_filler {
      type: "msra"
    }
    bias_term: false
  }
}
layer {
  name: "bn_stage_2_51_1"
  type: "BatchNorm"
  bottom: "res_stage_2_51_1"
  top: "res_stage_2_51_1"
  batch_norm_param {
      use_global_stats: false
  }
}
layer {
  name: "scale_stage_2_51_1"  
  type: "Scale"
  bottom: "res_stage_2_51_1"
  top: "res_stage_2_51_1"
  scale_param {
	bias_term: true
  }
}
 layer {
  name: "res_stage_2_51_1_relu"
  type: "ReLU"
  bottom: "res_stage_2_51_1"
  top: "res_stage_2_51_1"
}
layer {
  name: "res_stage_2_51_2"
  type: "Convolution"
  bottom: "res_stage_2_51_1"
  top: "res_stage_2_51_2"
  convolution_param {
    num_output: 128
    pad: 1
    kernel_size: 3
    stride: 1
    weight_filler {
      type: "msra"
    }
    bias_term: false
  }
}
layer {
  name: "bn_stage_2_51_2"
  type: "BatchNorm"
  bottom: "res_stage_2_51_2"
  top: "res_stage_2_51_2"
  batch_norm_param {
      use_global_stats: false
  }
}
layer {
  name: "scale_stage_2_51_2"  
  type: "Scale"
  bottom: "res_stage_2_51_2"
  top: "res_stage_2_51_2"
  scale_param {
	bias_term: true
  }
}
 layer {
  name: "res_stage_2_51_2_relu"
  type: "ReLU"
  bottom: "res_stage_2_51_2"
  top: "res_stage_2_51_2"
}
layer {
  name: "res_stage_2_51_3"
  type: "Convolution"
  bottom: "res_stage_2_51_2"
  top: "res_stage_2_51_3"
  convolution_param {
    num_output: 512
    pad: 0
    kernel_size: 1
    stride: 1
    weight_filler {
      type: "msra"
    }
    bias_term: false
  }
}
layer {
  name: "bn_stage_2_51_3"
  type: "BatchNorm"
  bottom: "res_stage_2_51_3"
  top: "res_stage_2_51_3"
  batch_norm_param {
      use_global_stats: false
  }
}
layer {
  name: "scale_stage_2_51_3"  
  type: "Scale"
  bottom: "res_stage_2_51_3"
  top: "res_stage_2_51_3"
  scale_param {
	bias_term: true
  }
}
 layer {
  name: "res_2_51"
  type: "Eltwise"
  bottom: "res_2_50"
  bottom: "res_stage_2_51_3"
  top: "res_2_51"
  eltwise_param {
    operation: SUM
  }
}
layer {
  name: "res_2_51_relu"
  type: "ReLU"
  bottom: "res_2_51"
  top: "res_2_51"
}
layer {
  name: "res_stage_2_52_1"
  type: "Convolution"
  bottom: "res_2_51"
  top: "res_stage_2_52_1"
  convolution_param {
    num_output: 128
    pad: 0
    kernel_size: 1
    stride: 1
    weight_filler {
      type: "msra"
    }
    bias_term: false
  }
}
layer {
  name: "bn_stage_2_52_1"
  type: "BatchNorm"
  bottom: "res_stage_2_52_1"
  top: "res_stage_2_52_1"
  batch_norm_param {
      use_global_stats: false
  }
}
layer {
  name: "scale_stage_2_52_1"  
  type: "Scale"
  bottom: "res_stage_2_52_1"
  top: "res_stage_2_52_1"
  scale_param {
	bias_term: true
  }
}
 layer {
  name: "res_stage_2_52_1_relu"
  type: "ReLU"
  bottom: "res_stage_2_52_1"
  top: "res_stage_2_52_1"
}
layer {
  name: "res_stage_2_52_2"
  type: "Convolution"
  bottom: "res_stage_2_52_1"
  top: "res_stage_2_52_2"
  convolution_param {
    num_output: 128
    pad: 1
    kernel_size: 3
    stride: 1
    weight_filler {
      type: "msra"
    }
    bias_term: false
  }
}
layer {
  name: "bn_stage_2_52_2"
  type: "BatchNorm"
  bottom: "res_stage_2_52_2"
  top: "res_stage_2_52_2"
  batch_norm_param {
      use_global_stats: false
  }
}
layer {
  name: "scale_stage_2_52_2"  
  type: "Scale"
  bottom: "res_stage_2_52_2"
  top: "res_stage_2_52_2"
  scale_param {
	bias_term: true
  }
}
 layer {
  name: "res_stage_2_52_2_relu"
  type: "ReLU"
  bottom: "res_stage_2_52_2"
  top: "res_stage_2_52_2"
}
layer {
  name: "res_stage_2_52_3"
  type: "Convolution"
  bottom: "res_stage_2_52_2"
  top: "res_stage_2_52_3"
  convolution_param {
    num_output: 512
    pad: 0
    kernel_size: 1
    stride: 1
    weight_filler {
      type: "msra"
    }
    bias_term: false
  }
}
layer {
  name: "bn_stage_2_52_3"
  type: "BatchNorm"
  bottom: "res_stage_2_52_3"
  top: "res_stage_2_52_3"
  batch_norm_param {
      use_global_stats: false
  }
}
layer {
  name: "scale_stage_2_52_3"  
  type: "Scale"
  bottom: "res_stage_2_52_3"
  top: "res_stage_2_52_3"
  scale_param {
	bias_term: true
  }
}
 layer {
  name: "res_2_52"
  type: "Eltwise"
  bottom: "res_2_51"
  bottom: "res_stage_2_52_3"
  top: "res_2_52"
  eltwise_param {
    operation: SUM
  }
}
layer {
  name: "res_2_52_relu"
  type: "ReLU"
  bottom: "res_2_52"
  top: "res_2_52"
}
layer {
  name: "res_stage_2_53_1"
  type: "Convolution"
  bottom: "res_2_52"
  top: "res_stage_2_53_1"
  convolution_param {
    num_output: 128
    pad: 0
    kernel_size: 1
    stride: 1
    weight_filler {
      type: "msra"
    }
    bias_term: false
  }
}
layer {
  name: "bn_stage_2_53_1"
  type: "BatchNorm"
  bottom: "res_stage_2_53_1"
  top: "res_stage_2_53_1"
  batch_norm_param {
      use_global_stats: false
  }
}
layer {
  name: "scale_stage_2_53_1"  
  type: "Scale"
  bottom: "res_stage_2_53_1"
  top: "res_stage_2_53_1"
  scale_param {
	bias_term: true
  }
}
 layer {
  name: "res_stage_2_53_1_relu"
  type: "ReLU"
  bottom: "res_stage_2_53_1"
  top: "res_stage_2_53_1"
}
layer {
  name: "res_stage_2_53_2"
  type: "Convolution"
  bottom: "res_stage_2_53_1"
  top: "res_stage_2_53_2"
  convolution_param {
    num_output: 128
    pad: 1
    kernel_size: 3
    stride: 1
    weight_filler {
      type: "msra"
    }
    bias_term: false
  }
}
layer {
  name: "bn_stage_2_53_2"
  type: "BatchNorm"
  bottom: "res_stage_2_53_2"
  top: "res_stage_2_53_2"
  batch_norm_param {
      use_global_stats: false
  }
}
layer {
  name: "scale_stage_2_53_2"  
  type: "Scale"
  bottom: "res_stage_2_53_2"
  top: "res_stage_2_53_2"
  scale_param {
	bias_term: true
  }
}
 layer {
  name: "res_stage_2_53_2_relu"
  type: "ReLU"
  bottom: "res_stage_2_53_2"
  top: "res_stage_2_53_2"
}
layer {
  name: "res_stage_2_53_3"
  type: "Convolution"
  bottom: "res_stage_2_53_2"
  top: "res_stage_2_53_3"
  convolution_param {
    num_output: 512
    pad: 0
    kernel_size: 1
    stride: 1
    weight_filler {
      type: "msra"
    }
    bias_term: false
  }
}
layer {
  name: "bn_stage_2_53_3"
  type: "BatchNorm"
  bottom: "res_stage_2_53_3"
  top: "res_stage_2_53_3"
  batch_norm_param {
      use_global_stats: false
  }
}
layer {
  name: "scale_stage_2_53_3"  
  type: "Scale"
  bottom: "res_stage_2_53_3"
  top: "res_stage_2_53_3"
  scale_param {
	bias_term: true
  }
}
 layer {
  name: "res_2_53"
  type: "Eltwise"
  bottom: "res_2_52"
  bottom: "res_stage_2_53_3"
  top: "res_2_53"
  eltwise_param {
    operation: SUM
  }
}
layer {
  name: "res_2_53_relu"
  type: "ReLU"
  bottom: "res_2_53"
  top: "res_2_53"
}
layer {
  name: "res_stage_2_54_1"
  type: "Convolution"
  bottom: "res_2_53"
  top: "res_stage_2_54_1"
  convolution_param {
    num_output: 128
    pad: 0
    kernel_size: 1
    stride: 1
    weight_filler {
      type: "msra"
    }
    bias_term: false
  }
}
layer {
  name: "bn_stage_2_54_1"
  type: "BatchNorm"
  bottom: "res_stage_2_54_1"
  top: "res_stage_2_54_1"
  batch_norm_param {
      use_global_stats: false
  }
}
layer {
  name: "scale_stage_2_54_1"  
  type: "Scale"
  bottom: "res_stage_2_54_1"
  top: "res_stage_2_54_1"
  scale_param {
	bias_term: true
  }
}
 layer {
  name: "res_stage_2_54_1_relu"
  type: "ReLU"
  bottom: "res_stage_2_54_1"
  top: "res_stage_2_54_1"
}
layer {
  name: "res_stage_2_54_2"
  type: "Convolution"
  bottom: "res_stage_2_54_1"
  top: "res_stage_2_54_2"
  convolution_param {
    num_output: 128
    pad: 1
    kernel_size: 3
    stride: 1
    weight_filler {
      type: "msra"
    }
    bias_term: false
  }
}
layer {
  name: "bn_stage_2_54_2"
  type: "BatchNorm"
  bottom: "res_stage_2_54_2"
  top: "res_stage_2_54_2"
  batch_norm_param {
      use_global_stats: false
  }
}
layer {
  name: "scale_stage_2_54_2"  
  type: "Scale"
  bottom: "res_stage_2_54_2"
  top: "res_stage_2_54_2"
  scale_param {
	bias_term: true
  }
}
 layer {
  name: "res_stage_2_54_2_relu"
  type: "ReLU"
  bottom: "res_stage_2_54_2"
  top: "res_stage_2_54_2"
}
layer {
  name: "res_stage_2_54_3"
  type: "Convolution"
  bottom: "res_stage_2_54_2"
  top: "res_stage_2_54_3"
  convolution_param {
    num_output: 512
    pad: 0
    kernel_size: 1
    stride: 1
    weight_filler {
      type: "msra"
    }
    bias_term: false
  }
}
layer {
  name: "bn_stage_2_54_3"
  type: "BatchNorm"
  bottom: "res_stage_2_54_3"
  top: "res_stage_2_54_3"
  batch_norm_param {
      use_global_stats: false
  }
}
layer {
  name: "scale_stage_2_54_3"  
  type: "Scale"
  bottom: "res_stage_2_54_3"
  top: "res_stage_2_54_3"
  scale_param {
	bias_term: true
  }
}
 layer {
  name: "res_2_54"
  type: "Eltwise"
  bottom: "res_2_53"
  bottom: "res_stage_2_54_3"
  top: "res_2_54"
  eltwise_param {
    operation: SUM
  }
}
layer {
  name: "res_2_54_relu"
  type: "ReLU"
  bottom: "res_2_54"
  top: "res_2_54"
}
layer {
  name: "res_stage_2_55_1"
  type: "Convolution"
  bottom: "res_2_54"
  top: "res_stage_2_55_1"
  convolution_param {
    num_output: 128
    pad: 0
    kernel_size: 1
    stride: 1
    weight_filler {
      type: "msra"
    }
    bias_term: false
  }
}
layer {
  name: "bn_stage_2_55_1"
  type: "BatchNorm"
  bottom: "res_stage_2_55_1"
  top: "res_stage_2_55_1"
  batch_norm_param {
      use_global_stats: false
  }
}
layer {
  name: "scale_stage_2_55_1"  
  type: "Scale"
  bottom: "res_stage_2_55_1"
  top: "res_stage_2_55_1"
  scale_param {
	bias_term: true
  }
}
 layer {
  name: "res_stage_2_55_1_relu"
  type: "ReLU"
  bottom: "res_stage_2_55_1"
  top: "res_stage_2_55_1"
}
layer {
  name: "res_stage_2_55_2"
  type: "Convolution"
  bottom: "res_stage_2_55_1"
  top: "res_stage_2_55_2"
  convolution_param {
    num_output: 128
    pad: 1
    kernel_size: 3
    stride: 1
    weight_filler {
      type: "msra"
    }
    bias_term: false
  }
}
layer {
  name: "bn_stage_2_55_2"
  type: "BatchNorm"
  bottom: "res_stage_2_55_2"
  top: "res_stage_2_55_2"
  batch_norm_param {
      use_global_stats: false
  }
}
layer {
  name: "scale_stage_2_55_2"  
  type: "Scale"
  bottom: "res_stage_2_55_2"
  top: "res_stage_2_55_2"
  scale_param {
	bias_term: true
  }
}
 layer {
  name: "res_stage_2_55_2_relu"
  type: "ReLU"
  bottom: "res_stage_2_55_2"
  top: "res_stage_2_55_2"
}
layer {
  name: "res_stage_2_55_3"
  type: "Convolution"
  bottom: "res_stage_2_55_2"
  top: "res_stage_2_55_3"
  convolution_param {
    num_output: 512
    pad: 0
    kernel_size: 1
    stride: 1
    weight_filler {
      type: "msra"
    }
    bias_term: false
  }
}
layer {
  name: "bn_stage_2_55_3"
  type: "BatchNorm"
  bottom: "res_stage_2_55_3"
  top: "res_stage_2_55_3"
  batch_norm_param {
      use_global_stats: false
  }
}
layer {
  name: "scale_stage_2_55_3"  
  type: "Scale"
  bottom: "res_stage_2_55_3"
  top: "res_stage_2_55_3"
  scale_param {
	bias_term: true
  }
}
 layer {
  name: "res_2_55"
  type: "Eltwise"
  bottom: "res_2_54"
  bottom: "res_stage_2_55_3"
  top: "res_2_55"
  eltwise_param {
    operation: SUM
  }
}
layer {
  name: "res_2_55_relu"
  type: "ReLU"
  bottom: "res_2_55"
  top: "res_2_55"
}
layer {
  name: "res_stage_2_56_1"
  type: "Convolution"
  bottom: "res_2_55"
  top: "res_stage_2_56_1"
  convolution_param {
    num_output: 128
    pad: 0
    kernel_size: 1
    stride: 1
    weight_filler {
      type: "msra"
    }
    bias_term: false
  }
}
layer {
  name: "bn_stage_2_56_1"
  type: "BatchNorm"
  bottom: "res_stage_2_56_1"
  top: "res_stage_2_56_1"
  batch_norm_param {
      use_global_stats: false
  }
}
layer {
  name: "scale_stage_2_56_1"  
  type: "Scale"
  bottom: "res_stage_2_56_1"
  top: "res_stage_2_56_1"
  scale_param {
	bias_term: true
  }
}
 layer {
  name: "res_stage_2_56_1_relu"
  type: "ReLU"
  bottom: "res_stage_2_56_1"
  top: "res_stage_2_56_1"
}
layer {
  name: "res_stage_2_56_2"
  type: "Convolution"
  bottom: "res_stage_2_56_1"
  top: "res_stage_2_56_2"
  convolution_param {
    num_output: 128
    pad: 1
    kernel_size: 3
    stride: 1
    weight_filler {
      type: "msra"
    }
    bias_term: false
  }
}
layer {
  name: "bn_stage_2_56_2"
  type: "BatchNorm"
  bottom: "res_stage_2_56_2"
  top: "res_stage_2_56_2"
  batch_norm_param {
      use_global_stats: false
  }
}
layer {
  name: "scale_stage_2_56_2"  
  type: "Scale"
  bottom: "res_stage_2_56_2"
  top: "res_stage_2_56_2"
  scale_param {
	bias_term: true
  }
}
 layer {
  name: "res_stage_2_56_2_relu"
  type: "ReLU"
  bottom: "res_stage_2_56_2"
  top: "res_stage_2_56_2"
}
layer {
  name: "res_stage_2_56_3"
  type: "Convolution"
  bottom: "res_stage_2_56_2"
  top: "res_stage_2_56_3"
  convolution_param {
    num_output: 512
    pad: 0
    kernel_size: 1
    stride: 1
    weight_filler {
      type: "msra"
    }
    bias_term: false
  }
}
layer {
  name: "bn_stage_2_56_3"
  type: "BatchNorm"
  bottom: "res_stage_2_56_3"
  top: "res_stage_2_56_3"
  batch_norm_param {
      use_global_stats: false
  }
}
layer {
  name: "scale_stage_2_56_3"  
  type: "Scale"
  bottom: "res_stage_2_56_3"
  top: "res_stage_2_56_3"
  scale_param {
	bias_term: true
  }
}
 layer {
  name: "res_2_56"
  type: "Eltwise"
  bottom: "res_2_55"
  bottom: "res_stage_2_56_3"
  top: "res_2_56"
  eltwise_param {
    operation: SUM
  }
}
layer {
  name: "res_2_56_relu"
  type: "ReLU"
  bottom: "res_2_56"
  top: "res_2_56"
}
layer {
  name: "res_stage_2_57_1"
  type: "Convolution"
  bottom: "res_2_56"
  top: "res_stage_2_57_1"
  convolution_param {
    num_output: 128
    pad: 0
    kernel_size: 1
    stride: 1
    weight_filler {
      type: "msra"
    }
    bias_term: false
  }
}
layer {
  name: "bn_stage_2_57_1"
  type: "BatchNorm"
  bottom: "res_stage_2_57_1"
  top: "res_stage_2_57_1"
  batch_norm_param {
      use_global_stats: false
  }
}
layer {
  name: "scale_stage_2_57_1"  
  type: "Scale"
  bottom: "res_stage_2_57_1"
  top: "res_stage_2_57_1"
  scale_param {
	bias_term: true
  }
}
 layer {
  name: "res_stage_2_57_1_relu"
  type: "ReLU"
  bottom: "res_stage_2_57_1"
  top: "res_stage_2_57_1"
}
layer {
  name: "res_stage_2_57_2"
  type: "Convolution"
  bottom: "res_stage_2_57_1"
  top: "res_stage_2_57_2"
  convolution_param {
    num_output: 128
    pad: 1
    kernel_size: 3
    stride: 1
    weight_filler {
      type: "msra"
    }
    bias_term: false
  }
}
layer {
  name: "bn_stage_2_57_2"
  type: "BatchNorm"
  bottom: "res_stage_2_57_2"
  top: "res_stage_2_57_2"
  batch_norm_param {
      use_global_stats: false
  }
}
layer {
  name: "scale_stage_2_57_2"  
  type: "Scale"
  bottom: "res_stage_2_57_2"
  top: "res_stage_2_57_2"
  scale_param {
	bias_term: true
  }
}
 layer {
  name: "res_stage_2_57_2_relu"
  type: "ReLU"
  bottom: "res_stage_2_57_2"
  top: "res_stage_2_57_2"
}
layer {
  name: "res_stage_2_57_3"
  type: "Convolution"
  bottom: "res_stage_2_57_2"
  top: "res_stage_2_57_3"
  convolution_param {
    num_output: 512
    pad: 0
    kernel_size: 1
    stride: 1
    weight_filler {
      type: "msra"
    }
    bias_term: false
  }
}
layer {
  name: "bn_stage_2_57_3"
  type: "BatchNorm"
  bottom: "res_stage_2_57_3"
  top: "res_stage_2_57_3"
  batch_norm_param {
      use_global_stats: false
  }
}
layer {
  name: "scale_stage_2_57_3"  
  type: "Scale"
  bottom: "res_stage_2_57_3"
  top: "res_stage_2_57_3"
  scale_param {
	bias_term: true
  }
}
 layer {
  name: "res_2_57"
  type: "Eltwise"
  bottom: "res_2_56"
  bottom: "res_stage_2_57_3"
  top: "res_2_57"
  eltwise_param {
    operation: SUM
  }
}
layer {
  name: "res_2_57_relu"
  type: "ReLU"
  bottom: "res_2_57"
  top: "res_2_57"
}
layer {
  name: "res_stage_2_58_1"
  type: "Convolution"
  bottom: "res_2_57"
  top: "res_stage_2_58_1"
  convolution_param {
    num_output: 128
    pad: 0
    kernel_size: 1
    stride: 1
    weight_filler {
      type: "msra"
    }
    bias_term: false
  }
}
layer {
  name: "bn_stage_2_58_1"
  type: "BatchNorm"
  bottom: "res_stage_2_58_1"
  top: "res_stage_2_58_1"
  batch_norm_param {
      use_global_stats: false
  }
}
layer {
  name: "scale_stage_2_58_1"  
  type: "Scale"
  bottom: "res_stage_2_58_1"
  top: "res_stage_2_58_1"
  scale_param {
	bias_term: true
  }
}
 layer {
  name: "res_stage_2_58_1_relu"
  type: "ReLU"
  bottom: "res_stage_2_58_1"
  top: "res_stage_2_58_1"
}
layer {
  name: "res_stage_2_58_2"
  type: "Convolution"
  bottom: "res_stage_2_58_1"
  top: "res_stage_2_58_2"
  convolution_param {
    num_output: 128
    pad: 1
    kernel_size: 3
    stride: 1
    weight_filler {
      type: "msra"
    }
    bias_term: false
  }
}
layer {
  name: "bn_stage_2_58_2"
  type: "BatchNorm"
  bottom: "res_stage_2_58_2"
  top: "res_stage_2_58_2"
  batch_norm_param {
      use_global_stats: false
  }
}
layer {
  name: "scale_stage_2_58_2"  
  type: "Scale"
  bottom: "res_stage_2_58_2"
  top: "res_stage_2_58_2"
  scale_param {
	bias_term: true
  }
}
 layer {
  name: "res_stage_2_58_2_relu"
  type: "ReLU"
  bottom: "res_stage_2_58_2"
  top: "res_stage_2_58_2"
}
layer {
  name: "res_stage_2_58_3"
  type: "Convolution"
  bottom: "res_stage_2_58_2"
  top: "res_stage_2_58_3"
  convolution_param {
    num_output: 512
    pad: 0
    kernel_size: 1
    stride: 1
    weight_filler {
      type: "msra"
    }
    bias_term: false
  }
}
layer {
  name: "bn_stage_2_58_3"
  type: "BatchNorm"
  bottom: "res_stage_2_58_3"
  top: "res_stage_2_58_3"
  batch_norm_param {
      use_global_stats: false
  }
}
layer {
  name: "scale_stage_2_58_3"  
  type: "Scale"
  bottom: "res_stage_2_58_3"
  top: "res_stage_2_58_3"
  scale_param {
	bias_term: true
  }
}
 layer {
  name: "res_2_58"
  type: "Eltwise"
  bottom: "res_2_57"
  bottom: "res_stage_2_58_3"
  top: "res_2_58"
  eltwise_param {
    operation: SUM
  }
}
layer {
  name: "res_2_58_relu"
  type: "ReLU"
  bottom: "res_2_58"
  top: "res_2_58"
}
layer {
  name: "res_stage_2_59_1"
  type: "Convolution"
  bottom: "res_2_58"
  top: "res_stage_2_59_1"
  convolution_param {
    num_output: 128
    pad: 0
    kernel_size: 1
    stride: 1
    weight_filler {
      type: "msra"
    }
    bias_term: false
  }
}
layer {
  name: "bn_stage_2_59_1"
  type: "BatchNorm"
  bottom: "res_stage_2_59_1"
  top: "res_stage_2_59_1"
  batch_norm_param {
      use_global_stats: false
  }
}
layer {
  name: "scale_stage_2_59_1"  
  type: "Scale"
  bottom: "res_stage_2_59_1"
  top: "res_stage_2_59_1"
  scale_param {
	bias_term: true
  }
}
 layer {
  name: "res_stage_2_59_1_relu"
  type: "ReLU"
  bottom: "res_stage_2_59_1"
  top: "res_stage_2_59_1"
}
layer {
  name: "res_stage_2_59_2"
  type: "Convolution"
  bottom: "res_stage_2_59_1"
  top: "res_stage_2_59_2"
  convolution_param {
    num_output: 128
    pad: 1
    kernel_size: 3
    stride: 1
    weight_filler {
      type: "msra"
    }
    bias_term: false
  }
}
layer {
  name: "bn_stage_2_59_2"
  type: "BatchNorm"
  bottom: "res_stage_2_59_2"
  top: "res_stage_2_59_2"
  batch_norm_param {
      use_global_stats: false
  }
}
layer {
  name: "scale_stage_2_59_2"  
  type: "Scale"
  bottom: "res_stage_2_59_2"
  top: "res_stage_2_59_2"
  scale_param {
	bias_term: true
  }
}
 layer {
  name: "res_stage_2_59_2_relu"
  type: "ReLU"
  bottom: "res_stage_2_59_2"
  top: "res_stage_2_59_2"
}
layer {
  name: "res_stage_2_59_3"
  type: "Convolution"
  bottom: "res_stage_2_59_2"
  top: "res_stage_2_59_3"
  convolution_param {
    num_output: 512
    pad: 0
    kernel_size: 1
    stride: 1
    weight_filler {
      type: "msra"
    }
    bias_term: false
  }
}
layer {
  name: "bn_stage_2_59_3"
  type: "BatchNorm"
  bottom: "res_stage_2_59_3"
  top: "res_stage_2_59_3"
  batch_norm_param {
      use_global_stats: false
  }
}
layer {
  name: "scale_stage_2_59_3"  
  type: "Scale"
  bottom: "res_stage_2_59_3"
  top: "res_stage_2_59_3"
  scale_param {
	bias_term: true
  }
}
 layer {
  name: "res_2_59"
  type: "Eltwise"
  bottom: "res_2_58"
  bottom: "res_stage_2_59_3"
  top: "res_2_59"
  eltwise_param {
    operation: SUM
  }
}
layer {
  name: "res_2_59_relu"
  type: "ReLU"
  bottom: "res_2_59"
  top: "res_2_59"
}
layer {
  name: "res_stage_2_60_1"
  type: "Convolution"
  bottom: "res_2_59"
  top: "res_stage_2_60_1"
  convolution_param {
    num_output: 128
    pad: 0
    kernel_size: 1
    stride: 1
    weight_filler {
      type: "msra"
    }
    bias_term: false
  }
}
layer {
  name: "bn_stage_2_60_1"
  type: "BatchNorm"
  bottom: "res_stage_2_60_1"
  top: "res_stage_2_60_1"
  batch_norm_param {
      use_global_stats: false
  }
}
layer {
  name: "scale_stage_2_60_1"  
  type: "Scale"
  bottom: "res_stage_2_60_1"
  top: "res_stage_2_60_1"
  scale_param {
	bias_term: true
  }
}
 layer {
  name: "res_stage_2_60_1_relu"
  type: "ReLU"
  bottom: "res_stage_2_60_1"
  top: "res_stage_2_60_1"
}
layer {
  name: "res_stage_2_60_2"
  type: "Convolution"
  bottom: "res_stage_2_60_1"
  top: "res_stage_2_60_2"
  convolution_param {
    num_output: 128
    pad: 1
    kernel_size: 3
    stride: 1
    weight_filler {
      type: "msra"
    }
    bias_term: false
  }
}
layer {
  name: "bn_stage_2_60_2"
  type: "BatchNorm"
  bottom: "res_stage_2_60_2"
  top: "res_stage_2_60_2"
  batch_norm_param {
      use_global_stats: false
  }
}
layer {
  name: "scale_stage_2_60_2"  
  type: "Scale"
  bottom: "res_stage_2_60_2"
  top: "res_stage_2_60_2"
  scale_param {
	bias_term: true
  }
}
 layer {
  name: "res_stage_2_60_2_relu"
  type: "ReLU"
  bottom: "res_stage_2_60_2"
  top: "res_stage_2_60_2"
}
layer {
  name: "res_stage_2_60_3"
  type: "Convolution"
  bottom: "res_stage_2_60_2"
  top: "res_stage_2_60_3"
  convolution_param {
    num_output: 512
    pad: 0
    kernel_size: 1
    stride: 1
    weight_filler {
      type: "msra"
    }
    bias_term: false
  }
}
layer {
  name: "bn_stage_2_60_3"
  type: "BatchNorm"
  bottom: "res_stage_2_60_3"
  top: "res_stage_2_60_3"
  batch_norm_param {
      use_global_stats: false
  }
}
layer {
  name: "scale_stage_2_60_3"  
  type: "Scale"
  bottom: "res_stage_2_60_3"
  top: "res_stage_2_60_3"
  scale_param {
	bias_term: true
  }
}
 layer {
  name: "res_2_60"
  type: "Eltwise"
  bottom: "res_2_59"
  bottom: "res_stage_2_60_3"
  top: "res_2_60"
  eltwise_param {
    operation: SUM
  }
}
layer {
  name: "res_2_60_relu"
  type: "ReLU"
  bottom: "res_2_60"
  top: "res_2_60"
}
layer {
  name: "res_stage_2_61_1"
  type: "Convolution"
  bottom: "res_2_60"
  top: "res_stage_2_61_1"
  convolution_param {
    num_output: 128
    pad: 0
    kernel_size: 1
    stride: 1
    weight_filler {
      type: "msra"
    }
    bias_term: false
  }
}
layer {
  name: "bn_stage_2_61_1"
  type: "BatchNorm"
  bottom: "res_stage_2_61_1"
  top: "res_stage_2_61_1"
  batch_norm_param {
      use_global_stats: false
  }
}
layer {
  name: "scale_stage_2_61_1"  
  type: "Scale"
  bottom: "res_stage_2_61_1"
  top: "res_stage_2_61_1"
  scale_param {
	bias_term: true
  }
}
 layer {
  name: "res_stage_2_61_1_relu"
  type: "ReLU"
  bottom: "res_stage_2_61_1"
  top: "res_stage_2_61_1"
}
layer {
  name: "res_stage_2_61_2"
  type: "Convolution"
  bottom: "res_stage_2_61_1"
  top: "res_stage_2_61_2"
  convolution_param {
    num_output: 128
    pad: 1
    kernel_size: 3
    stride: 1
    weight_filler {
      type: "msra"
    }
    bias_term: false
  }
}
layer {
  name: "bn_stage_2_61_2"
  type: "BatchNorm"
  bottom: "res_stage_2_61_2"
  top: "res_stage_2_61_2"
  batch_norm_param {
      use_global_stats: false
  }
}
layer {
  name: "scale_stage_2_61_2"  
  type: "Scale"
  bottom: "res_stage_2_61_2"
  top: "res_stage_2_61_2"
  scale_param {
	bias_term: true
  }
}
 layer {
  name: "res_stage_2_61_2_relu"
  type: "ReLU"
  bottom: "res_stage_2_61_2"
  top: "res_stage_2_61_2"
}
layer {
  name: "res_stage_2_61_3"
  type: "Convolution"
  bottom: "res_stage_2_61_2"
  top: "res_stage_2_61_3"
  convolution_param {
    num_output: 512
    pad: 0
    kernel_size: 1
    stride: 1
    weight_filler {
      type: "msra"
    }
    bias_term: false
  }
}
layer {
  name: "bn_stage_2_61_3"
  type: "BatchNorm"
  bottom: "res_stage_2_61_3"
  top: "res_stage_2_61_3"
  batch_norm_param {
      use_global_stats: false
  }
}
layer {
  name: "scale_stage_2_61_3"  
  type: "Scale"
  bottom: "res_stage_2_61_3"
  top: "res_stage_2_61_3"
  scale_param {
	bias_term: true
  }
}
 layer {
  name: "res_2_61"
  type: "Eltwise"
  bottom: "res_2_60"
  bottom: "res_stage_2_61_3"
  top: "res_2_61"
  eltwise_param {
    operation: SUM
  }
}
layer {
  name: "res_2_61_relu"
  type: "ReLU"
  bottom: "res_2_61"
  top: "res_2_61"
}
layer {
  name: "res_stage_2_62_1"
  type: "Convolution"
  bottom: "res_2_61"
  top: "res_stage_2_62_1"
  convolution_param {
    num_output: 128
    pad: 0
    kernel_size: 1
    stride: 1
    weight_filler {
      type: "msra"
    }
    bias_term: false
  }
}
layer {
  name: "bn_stage_2_62_1"
  type: "BatchNorm"
  bottom: "res_stage_2_62_1"
  top: "res_stage_2_62_1"
  batch_norm_param {
      use_global_stats: false
  }
}
layer {
  name: "scale_stage_2_62_1"  
  type: "Scale"
  bottom: "res_stage_2_62_1"
  top: "res_stage_2_62_1"
  scale_param {
	bias_term: true
  }
}
 layer {
  name: "res_stage_2_62_1_relu"
  type: "ReLU"
  bottom: "res_stage_2_62_1"
  top: "res_stage_2_62_1"
}
layer {
  name: "res_stage_2_62_2"
  type: "Convolution"
  bottom: "res_stage_2_62_1"
  top: "res_stage_2_62_2"
  convolution_param {
    num_output: 128
    pad: 1
    kernel_size: 3
    stride: 1
    weight_filler {
      type: "msra"
    }
    bias_term: false
  }
}
layer {
  name: "bn_stage_2_62_2"
  type: "BatchNorm"
  bottom: "res_stage_2_62_2"
  top: "res_stage_2_62_2"
  batch_norm_param {
      use_global_stats: false
  }
}
layer {
  name: "scale_stage_2_62_2"  
  type: "Scale"
  bottom: "res_stage_2_62_2"
  top: "res_stage_2_62_2"
  scale_param {
	bias_term: true
  }
}
 layer {
  name: "res_stage_2_62_2_relu"
  type: "ReLU"
  bottom: "res_stage_2_62_2"
  top: "res_stage_2_62_2"
}
layer {
  name: "res_stage_2_62_3"
  type: "Convolution"
  bottom: "res_stage_2_62_2"
  top: "res_stage_2_62_3"
  convolution_param {
    num_output: 512
    pad: 0
    kernel_size: 1
    stride: 1
    weight_filler {
      type: "msra"
    }
    bias_term: false
  }
}
layer {
  name: "bn_stage_2_62_3"
  type: "BatchNorm"
  bottom: "res_stage_2_62_3"
  top: "res_stage_2_62_3"
  batch_norm_param {
      use_global_stats: false
  }
}
layer {
  name: "scale_stage_2_62_3"  
  type: "Scale"
  bottom: "res_stage_2_62_3"
  top: "res_stage_2_62_3"
  scale_param {
	bias_term: true
  }
}
 layer {
  name: "res_2_62"
  type: "Eltwise"
  bottom: "res_2_61"
  bottom: "res_stage_2_62_3"
  top: "res_2_62"
  eltwise_param {
    operation: SUM
  }
}
layer {
  name: "res_2_62_relu"
  type: "ReLU"
  bottom: "res_2_62"
  top: "res_2_62"
}
layer {
  name: "res_stage_2_63_1"
  type: "Convolution"
  bottom: "res_2_62"
  top: "res_stage_2_63_1"
  convolution_param {
    num_output: 128
    pad: 0
    kernel_size: 1
    stride: 1
    weight_filler {
      type: "msra"
    }
    bias_term: false
  }
}
layer {
  name: "bn_stage_2_63_1"
  type: "BatchNorm"
  bottom: "res_stage_2_63_1"
  top: "res_stage_2_63_1"
  batch_norm_param {
      use_global_stats: false
  }
}
layer {
  name: "scale_stage_2_63_1"  
  type: "Scale"
  bottom: "res_stage_2_63_1"
  top: "res_stage_2_63_1"
  scale_param {
	bias_term: true
  }
}
 layer {
  name: "res_stage_2_63_1_relu"
  type: "ReLU"
  bottom: "res_stage_2_63_1"
  top: "res_stage_2_63_1"
}
layer {
  name: "res_stage_2_63_2"
  type: "Convolution"
  bottom: "res_stage_2_63_1"
  top: "res_stage_2_63_2"
  convolution_param {
    num_output: 128
    pad: 1
    kernel_size: 3
    stride: 1
    weight_filler {
      type: "msra"
    }
    bias_term: false
  }
}
layer {
  name: "bn_stage_2_63_2"
  type: "BatchNorm"
  bottom: "res_stage_2_63_2"
  top: "res_stage_2_63_2"
  batch_norm_param {
      use_global_stats: false
  }
}
layer {
  name: "scale_stage_2_63_2"  
  type: "Scale"
  bottom: "res_stage_2_63_2"
  top: "res_stage_2_63_2"
  scale_param {
	bias_term: true
  }
}
 layer {
  name: "res_stage_2_63_2_relu"
  type: "ReLU"
  bottom: "res_stage_2_63_2"
  top: "res_stage_2_63_2"
}
layer {
  name: "res_stage_2_63_3"
  type: "Convolution"
  bottom: "res_stage_2_63_2"
  top: "res_stage_2_63_3"
  convolution_param {
    num_output: 512
    pad: 0
    kernel_size: 1
    stride: 1
    weight_filler {
      type: "msra"
    }
    bias_term: false
  }
}
layer {
  name: "bn_stage_2_63_3"
  type: "BatchNorm"
  bottom: "res_stage_2_63_3"
  top: "res_stage_2_63_3"
  batch_norm_param {
      use_global_stats: false
  }
}
layer {
  name: "scale_stage_2_63_3"  
  type: "Scale"
  bottom: "res_stage_2_63_3"
  top: "res_stage_2_63_3"
  scale_param {
	bias_term: true
  }
}
 layer {
  name: "res_2_63"
  type: "Eltwise"
  bottom: "res_2_62"
  bottom: "res_stage_2_63_3"
  top: "res_2_63"
  eltwise_param {
    operation: SUM
  }
}
layer {
  name: "res_2_63_relu"
  type: "ReLU"
  bottom: "res_2_63"
  top: "res_2_63"
}
layer {
  name: "res_stage_2_64_1"
  type: "Convolution"
  bottom: "res_2_63"
  top: "res_stage_2_64_1"
  convolution_param {
    num_output: 128
    pad: 0
    kernel_size: 1
    stride: 1
    weight_filler {
      type: "msra"
    }
    bias_term: false
  }
}
layer {
  name: "bn_stage_2_64_1"
  type: "BatchNorm"
  bottom: "res_stage_2_64_1"
  top: "res_stage_2_64_1"
  batch_norm_param {
      use_global_stats: false
  }
}
layer {
  name: "scale_stage_2_64_1"  
  type: "Scale"
  bottom: "res_stage_2_64_1"
  top: "res_stage_2_64_1"
  scale_param {
	bias_term: true
  }
}
 layer {
  name: "res_stage_2_64_1_relu"
  type: "ReLU"
  bottom: "res_stage_2_64_1"
  top: "res_stage_2_64_1"
}
layer {
  name: "res_stage_2_64_2"
  type: "Convolution"
  bottom: "res_stage_2_64_1"
  top: "res_stage_2_64_2"
  convolution_param {
    num_output: 128
    pad: 1
    kernel_size: 3
    stride: 1
    weight_filler {
      type: "msra"
    }
    bias_term: false
  }
}
layer {
  name: "bn_stage_2_64_2"
  type: "BatchNorm"
  bottom: "res_stage_2_64_2"
  top: "res_stage_2_64_2"
  batch_norm_param {
      use_global_stats: false
  }
}
layer {
  name: "scale_stage_2_64_2"  
  type: "Scale"
  bottom: "res_stage_2_64_2"
  top: "res_stage_2_64_2"
  scale_param {
	bias_term: true
  }
}
 layer {
  name: "res_stage_2_64_2_relu"
  type: "ReLU"
  bottom: "res_stage_2_64_2"
  top: "res_stage_2_64_2"
}
layer {
  name: "res_stage_2_64_3"
  type: "Convolution"
  bottom: "res_stage_2_64_2"
  top: "res_stage_2_64_3"
  convolution_param {
    num_output: 512
    pad: 0
    kernel_size: 1
    stride: 1
    weight_filler {
…
      type: "msra"
    }
    bias_term: false
  }
}
layer {
  name: "bn_stage_3_339_2"
  type: "BatchNorm"
  bottom: "res_stage_3_339_2"
  top: "res_stage_3_339_2"
  batch_norm_param {
      use_global_stats: false
  }
}
layer {
  name: "scale_stage_3_339_2"  
  type: "Scale"
  bottom: "res_stage_3_339_2"
  top: "res_stage_3_339_2"
  scale_param {
	bias_term: true
  }
}
 layer {
  name: "res_stage_3_339_2_relu"
  type: "ReLU"
  bottom: "res_stage_3_339_2"
  top: "res_stage_3_339_2"
}
layer {
  name: "res_stage_3_339_3"
  type: "Convolution"
  bottom: "res_stage_3_339_2"
  top: "res_stage_3_339_3"
  convolution_param {
    num_output: 1024
    pad: 0
    kernel_size: 1
    stride: 1
    weight_filler {
      type: "msra"
    }
    bias_term: false
  }
}
layer {
  name: "bn_stage_3_339_3"
  type: "BatchNorm"
  bottom: "res_stage_3_339_3"
  top: "res_stage_3_339_3"
  batch_norm_param {
      use_global_stats: false
  }
}
layer {
  name: "scale_stage_3_339_3"  
  type: "Scale"
  bottom: "res_stage_3_339_3"
  top: "res_stage_3_339_3"
  scale_param {
	bias_term: true
  }
}
 layer {
  name: "res_3_339"
  type: "Eltwise"
  bottom: "res_3_338"
  bottom: "res_stage_3_339_3"
  top: "res_3_339"
  eltwise_param {
    operation: SUM
  }
}
layer {
  name: "res_3_339_relu"
  type: "ReLU"
  bottom: "res_3_339"
  top: "res_3_339"
}
layer {
  name: "res_stage_3_340_1"
  type: "Convolution"
  bottom: "res_3_339"
  top: "res_stage_3_340_1"
  convolution_param {
    num_output: 256
    pad: 0
    kernel_size: 1
    stride: 1
    weight_filler {
      type: "msra"
    }
    bias_term: false
  }
}
layer {
  name: "bn_stage_3_340_1"
  type: "BatchNorm"
  bottom: "res_stage_3_340_1"
  top: "res_stage_3_340_1"
  batch_norm_param {
      use_global_stats: false
  }
}
layer {
  name: "scale_stage_3_340_1"  
  type: "Scale"
  bottom: "res_stage_3_340_1"
  top: "res_stage_3_340_1"
  scale_param {
	bias_term: true
  }
}
 layer {
  name: "res_stage_3_340_1_relu"
  type: "ReLU"
  bottom: "res_stage_3_340_1"
  top: "res_stage_3_340_1"
}
layer {
  name: "res_stage_3_340_2"
  type: "Convolution"
  bottom: "res_stage_3_340_1"
  top: "res_stage_3_340_2"
  convolution_param {
    num_output: 256
    pad: 1
    kernel_size: 3
    stride: 1
    weight_filler {
      type: "msra"
    }
    bias_term: false
  }
}
layer {
  name: "bn_stage_3_340_2"
  type: "BatchNorm"
  bottom: "res_stage_3_340_2"
  top: "res_stage_3_340_2"
  batch_norm_param {
      use_global_stats: false
  }
}
layer {
  name: "scale_stage_3_340_2"  
  type: "Scale"
  bottom: "res_stage_3_340_2"
  top: "res_stage_3_340_2"
  scale_param {
	bias_term: true
  }
}
 layer {
  name: "res_stage_3_340_2_relu"
  type: "ReLU"
  bottom: "res_stage_3_340_2"
  top: "res_stage_3_340_2"
}
layer {
  name: "res_stage_3_340_3"
  type: "Convolution"
  bottom: "res_stage_3_340_2"
  top: "res_stage_3_340_3"
  convolution_param {
    num_output: 1024
    pad: 0
    kernel_size: 1
    stride: 1
    weight_filler {
      type: "msra"
    }
    bias_term: false
  }
}
layer {
  name: "bn_stage_3_340_3"
  type: "BatchNorm"
  bottom: "res_stage_3_340_3"
  top: "res_stage_3_340_3"
  batch_norm_param {
      use_global_stats: false
  }
}
layer {
  name: "scale_stage_3_340_3"  
  type: "Scale"
  bottom: "res_stage_3_340_3"
  top: "res_stage_3_340_3"
  scale_param {
	bias_term: true
  }
}
 layer {
  name: "res_3_340"
  type: "Eltwise"
  bottom: "res_3_339"
  bottom: "res_stage_3_340_3"
  top: "res_3_340"
  eltwise_param {
    operation: SUM
  }
}
layer {
  name: "res_3_340_relu"
  type: "ReLU"
  bottom: "res_3_340"
  top: "res_3_340"
}
layer {
  name: "res_stage_3_341_1"
  type: "Convolution"
  bottom: "res_3_340"
  top: "res_stage_3_341_1"
  convolution_param {
    num_output: 256
    pad: 0
    kernel_size: 1
    stride: 1
    weight_filler {
      type: "msra"
    }
    bias_term: false
  }
}
layer {
  name: "bn_stage_3_341_1"
  type: "BatchNorm"
  bottom: "res_stage_3_341_1"
  top: "res_stage_3_341_1"
  batch_norm_param {
      use_global_stats: false
  }
}
layer {
  name: "scale_stage_3_341_1"  
  type: "Scale"
  bottom: "res_stage_3_341_1"
  top: "res_stage_3_341_1"
  scale_param {
	bias_term: true
  }
}
 layer {
  name: "res_stage_3_341_1_relu"
  type: "ReLU"
  bottom: "res_stage_3_341_1"
  top: "res_stage_3_341_1"
}
layer {
  name: "res_stage_3_341_2"
  type: "Convolution"
  bottom: "res_stage_3_341_1"
  top: "res_stage_3_341_2"
  convolution_param {
    num_output: 256
    pad: 1
    kernel_size: 3
    stride: 1
    weight_filler {
      type: "msra"
    }
    bias_term: false
  }
}
layer {
  name: "bn_stage_3_341_2"
  type: "BatchNorm"
  bottom: "res_stage_3_341_2"
  top: "res_stage_3_341_2"
  batch_norm_param {
      use_global_stats: false
  }
}
layer {
  name: "scale_stage_3_341_2"  
  type: "Scale"
  bottom: "res_stage_3_341_2"
  top: "res_stage_3_341_2"
  scale_param {
	bias_term: true
  }
}
 layer {
  name: "res_stage_3_341_2_relu"
  type: "ReLU"
  bottom: "res_stage_3_341_2"
  top: "res_stage_3_341_2"
}
layer {
  name: "res_stage_3_341_3"
  type: "Convolution"
  bottom: "res_stage_3_341_2"
  top: "res_stage_3_341_3"
  convolution_param {
    num_output: 1024
    pad: 0
    kernel_size: 1
    stride: 1
    weight_filler {
      type: "msra"
    }
    bias_term: false
  }
}
layer {
  name: "bn_stage_3_341_3"
  type: "BatchNorm"
  bottom: "res_stage_3_341_3"
  top: "res_stage_3_341_3"
  batch_norm_param {
      use_global_stats: false
  }
}
layer {
  name: "scale_stage_3_341_3"  
  type: "Scale"
  bottom: "res_stage_3_341_3"
  top: "res_stage_3_341_3"
  scale_param {
	bias_term: true
  }
}
 layer {
  name: "res_3_341"
  type: "Eltwise"
  bottom: "res_3_340"
  bottom: "res_stage_3_341_3"
  top: "res_3_341"
  eltwise_param {
    operation: SUM
  }
}
layer {
  name: "res_3_341_relu"
  type: "ReLU"
  bottom: "res_3_341"
  top: "res_3_341"
}
layer {
  name: "res_stage_3_342_1"
  type: "Convolution"
  bottom: "res_3_341"
  top: "res_stage_3_342_1"
  convolution_param {
    num_output: 256
    pad: 0
    kernel_size: 1
    stride: 1
    weight_filler {
      type: "msra"
    }
    bias_term: false
  }
}
layer {
  name: "bn_stage_3_342_1"
  type: "BatchNorm"
  bottom: "res_stage_3_342_1"
  top: "res_stage_3_342_1"
  batch_norm_param {
      use_global_stats: false
  }
}
layer {
  name: "scale_stage_3_342_1"  
  type: "Scale"
  bottom: "res_stage_3_342_1"
  top: "res_stage_3_342_1"
  scale_param {
	bias_term: true
  }
}
 layer {
  name: "res_stage_3_342_1_relu"
  type: "ReLU"
  bottom: "res_stage_3_342_1"
  top: "res_stage_3_342_1"
}
layer {
  name: "res_stage_3_342_2"
  type: "Convolution"
  bottom: "res_stage_3_342_1"
  top: "res_stage_3_342_2"
  convolution_param {
    num_output: 256
    pad: 1
    kernel_size: 3
    stride: 1
    weight_filler {
      type: "msra"
    }
    bias_term: false
  }
}
layer {
  name: "bn_stage_3_342_2"
  type: "BatchNorm"
  bottom: "res_stage_3_342_2"
  top: "res_stage_3_342_2"
  batch_norm_param {
      use_global_stats: false
  }
}
layer {
  name: "scale_stage_3_342_2"  
  type: "Scale"
  bottom: "res_stage_3_342_2"
  top: "res_stage_3_342_2"
  scale_param {
	bias_term: true
  }
}
 layer {
  name: "res_stage_3_342_2_relu"
  type: "ReLU"
  bottom: "res_stage_3_342_2"
  top: "res_stage_3_342_2"
}
layer {
  name: "res_stage_3_342_3"
  type: "Convolution"
  bottom: "res_stage_3_342_2"
  top: "res_stage_3_342_3"
  convolution_param {
    num_output: 1024
    pad: 0
    kernel_size: 1
    stride: 1
    weight_filler {
      type: "msra"
    }
    bias_term: false
  }
}
layer {
  name: "bn_stage_3_342_3"
  type: "BatchNorm"
  bottom: "res_stage_3_342_3"
  top: "res_stage_3_342_3"
  batch_norm_param {
      use_global_stats: false
  }
}
layer {
  name: "scale_stage_3_342_3"  
  type: "Scale"
  bottom: "res_stage_3_342_3"
  top: "res_stage_3_342_3"
  scale_param {
	bias_term: true
  }
}
 layer {
  name: "res_3_342"
  type: "Eltwise"
  bottom: "res_3_341"
  bottom: "res_stage_3_342_3"
  top: "res_3_342"
  eltwise_param {
    operation: SUM
  }
}
layer {
  name: "res_3_342_relu"
  type: "ReLU"
  bottom: "res_3_342"
  top: "res_3_342"
}
layer {
  name: "res_stage_3_343_1"
  type: "Convolution"
  bottom: "res_3_342"
  top: "res_stage_3_343_1"
  convolution_param {
    num_output: 256
    pad: 0
    kernel_size: 1
    stride: 1
    weight_filler {
      type: "msra"
    }
    bias_term: false
  }
}
layer {
  name: "bn_stage_3_343_1"
  type: "BatchNorm"
  bottom: "res_stage_3_343_1"
  top: "res_stage_3_343_1"
  batch_norm_param {
      use_global_stats: false
  }
}
layer {
  name: "scale_stage_3_343_1"  
  type: "Scale"
  bottom: "res_stage_3_343_1"
  top: "res_stage_3_343_1"
  scale_param {
	bias_term: true
  }
}
 layer {
  name: "res_stage_3_343_1_relu"
  type: "ReLU"
  bottom: "res_stage_3_343_1"
  top: "res_stage_3_343_1"
}
layer {
  name: "res_stage_3_343_2"
  type: "Convolution"
  bottom: "res_stage_3_343_1"
  top: "res_stage_3_343_2"
  convolution_param {
    num_output: 256
    pad: 1
    kernel_size: 3
    stride: 1
    weight_filler {
      type: "msra"
    }
    bias_term: false
  }
}
layer {
  name: "bn_stage_3_343_2"
  type: "BatchNorm"
  bottom: "res_stage_3_343_2"
  top: "res_stage_3_343_2"
  batch_norm_param {
      use_global_stats: false
  }
}
layer {
  name: "scale_stage_3_343_2"  
  type: "Scale"
  bottom: "res_stage_3_343_2"
  top: "res_stage_3_343_2"
  scale_param {
	bias_term: true
  }
}
 layer {
  name: "res_stage_3_343_2_relu"
  type: "ReLU"
  bottom: "res_stage_3_343_2"
  top: "res_stage_3_343_2"
}
layer {
  name: "res_stage_3_343_3"
  type: "Convolution"
  bottom: "res_stage_3_343_2"
  top: "res_stage_3_343_3"
  convolution_param {
    num_output: 1024
    pad: 0
    kernel_size: 1
    stride: 1
    weight_filler {
      type: "msra"
    }
    bias_term: false
  }
}
layer {
  name: "bn_stage_3_343_3"
  type: "BatchNorm"
  bottom: "res_stage_3_343_3"
  top: "res_stage_3_343_3"
  batch_norm_param {
      use_global_stats: false
  }
}
layer {
  name: "scale_stage_3_343_3"  
  type: "Scale"
  bottom: "res_stage_3_343_3"
  top: "res_stage_3_343_3"
  scale_param {
	bias_term: true
  }
}
 layer {
  name: "res_3_343"
  type: "Eltwise"
  bottom: "res_3_342"
  bottom: "res_stage_3_343_3"
  top: "res_3_343"
  eltwise_param {
    operation: SUM
  }
}
layer {
  name: "res_3_343_relu"
  type: "ReLU"
  bottom: "res_3_343"
  top: "res_3_343"
}
layer {
  name: "res_stage_3_344_1"
  type: "Convolution"
  bottom: "res_3_343"
  top: "res_stage_3_344_1"
  convolution_param {
    num_output: 256
    pad: 0
    kernel_size: 1
    stride: 1
    weight_filler {
      type: "msra"
    }
    bias_term: false
  }
}
layer {
  name: "bn_stage_3_344_1"
  type: "BatchNorm"
  bottom: "res_stage_3_344_1"
  top: "res_stage_3_344_1"
  batch_norm_param {
      use_global_stats: false
  }
}
layer {
  name: "scale_stage_3_344_1"  
  type: "Scale"
  bottom: "res_stage_3_344_1"
  top: "res_stage_3_344_1"
  scale_param {
	bias_term: true
  }
}
 layer {
  name: "res_stage_3_344_1_relu"
  type: "ReLU"
  bottom: "res_stage_3_344_1"
  top: "res_stage_3_344_1"
}
layer {
  name: "res_stage_3_344_2"
  type: "Convolution"
  bottom: "res_stage_3_344_1"
  top: "res_stage_3_344_2"
  convolution_param {
    num_output: 256
    pad: 1
    kernel_size: 3
    stride: 1
    weight_filler {
      type: "msra"
    }
    bias_term: false
  }
}
layer {
  name: "bn_stage_3_344_2"
  type: "BatchNorm"
  bottom: "res_stage_3_344_2"
  top: "res_stage_3_344_2"
  batch_norm_param {
      use_global_stats: false
  }
}
layer {
  name: "scale_stage_3_344_2"  
  type: "Scale"
  bottom: "res_stage_3_344_2"
  top: "res_stage_3_344_2"
  scale_param {
	bias_term: true
  }
}
 layer {
  name: "res_stage_3_344_2_relu"
  type: "ReLU"
  bottom: "res_stage_3_344_2"
  top: "res_stage_3_344_2"
}
layer {
  name: "res_stage_3_344_3"
  type: "Convolution"
  bottom: "res_stage_3_344_2"
  top: "res_stage_3_344_3"
  convolution_param {
    num_output: 1024
    pad: 0
    kernel_size: 1
    stride: 1
    weight_filler {
      type: "msra"
    }
    bias_term: false
  }
}
layer {
  name: "bn_stage_3_344_3"
  type: "BatchNorm"
  bottom: "res_stage_3_344_3"
  top: "res_stage_3_344_3"
  batch_norm_param {
      use_global_stats: false
  }
}
layer {
  name: "scale_stage_3_344_3"  
  type: "Scale"
  bottom: "res_stage_3_344_3"
  top: "res_stage_3_344_3"
  scale_param {
	bias_term: true
  }
}
 layer {
  name: "res_3_344"
  type: "Eltwise"
  bottom: "res_3_343"
  bottom: "res_stage_3_344_3"
  top: "res_3_344"
  eltwise_param {
    operation: SUM
  }
}
layer {
  name: "res_3_344_relu"
  type: "ReLU"
  bottom: "res_3_344"
  top: "res_3_344"
}
layer {
  name: "res_stage_3_345_1"
  type: "Convolution"
  bottom: "res_3_344"
  top: "res_stage_3_345_1"
  convolution_param {
    num_output: 256
    pad: 0
    kernel_size: 1
    stride: 1
    weight_filler {
      type: "msra"
    }
    bias_term: false
  }
}
layer {
  name: "bn_stage_3_345_1"
  type: "BatchNorm"
  bottom: "res_stage_3_345_1"
  top: "res_stage_3_345_1"
  batch_norm_param {
      use_global_stats: false
  }
}
layer {
  name: "scale_stage_3_345_1"  
  type: "Scale"
  bottom: "res_stage_3_345_1"
  top: "res_stage_3_345_1"
  scale_param {
	bias_term: true
  }
}
 layer {
  name: "res_stage_3_345_1_relu"
  type: "ReLU"
  bottom: "res_stage_3_345_1"
  top: "res_stage_3_345_1"
}
layer {
  name: "res_stage_3_345_2"
  type: "Convolution"
  bottom: "res_stage_3_345_1"
  top: "res_stage_3_345_2"
  convolution_param {
    num_output: 256
    pad: 1
    kernel_size: 3
    stride: 1
    weight_filler {
      type: "msra"
    }
    bias_term: false
  }
}
layer {
  name: "bn_stage_3_345_2"
  type: "BatchNorm"
  bottom: "res_stage_3_345_2"
  top: "res_stage_3_345_2"
  batch_norm_param {
      use_global_stats: false
  }
}
layer {
  name: "scale_stage_3_345_2"  
  type: "Scale"
  bottom: "res_stage_3_345_2"
  top: "res_stage_3_345_2"
  scale_param {
	bias_term: true
  }
}
 layer {
  name: "res_stage_3_345_2_relu"
  type: "ReLU"
  bottom: "res_stage_3_345_2"
  top: "res_stage_3_345_2"
}
layer {
  name: "res_stage_3_345_3"
  type: "Convolution"
  bottom: "res_stage_3_345_2"
  top: "res_stage_3_345_3"
  convolution_param {
    num_output: 1024
    pad: 0
    kernel_size: 1
    stride: 1
    weight_filler {
      type: "msra"
    }
    bias_term: false
  }
}
layer {
  name: "bn_stage_3_345_3"
  type: "BatchNorm"
  bottom: "res_stage_3_345_3"
  top: "res_stage_3_345_3"
  batch_norm_param {
      use_global_stats: false
  }
}
layer {
  name: "scale_stage_3_345_3"  
  type: "Scale"
  bottom: "res_stage_3_345_3"
  top: "res_stage_3_345_3"
  scale_param {
	bias_term: true
  }
}
 layer {
  name: "res_3_345"
  type: "Eltwise"
  bottom: "res_3_344"
  bottom: "res_stage_3_345_3"
  top: "res_3_345"
  eltwise_param {
    operation: SUM
  }
}
layer {
  name: "res_3_345_relu"
  type: "ReLU"
  bottom: "res_3_345"
  top: "res_3_345"
}
layer {
  name: "res_stage_3_346_1"
  type: "Convolution"
  bottom: "res_3_345"
  top: "res_stage_3_346_1"
  convolution_param {
    num_output: 256
    pad: 0
    kernel_size: 1
    stride: 1
    weight_filler {
      type: "msra"
    }
    bias_term: false
  }
}
layer {
  name: "bn_stage_3_346_1"
  type: "BatchNorm"
  bottom: "res_stage_3_346_1"
  top: "res_stage_3_346_1"
  batch_norm_param {
      use_global_stats: false
  }
}
layer {
  name: "scale_stage_3_346_1"  
  type: "Scale"
  bottom: "res_stage_3_346_1"
  top: "res_stage_3_346_1"
  scale_param {
	bias_term: true
  }
}
 layer {
  name: "res_stage_3_346_1_relu"
  type: "ReLU"
  bottom: "res_stage_3_346_1"
  top: "res_stage_3_346_1"
}
layer {
  name: "res_stage_3_346_2"
  type: "Convolution"
  bottom: "res_stage_3_346_1"
  top: "res_stage_3_346_2"
  convolution_param {
    num_output: 256
    pad: 1
    kernel_size: 3
    stride: 1
    weight_filler {
      type: "msra"
    }
    bias_term: false
  }
}
layer {
  name: "bn_stage_3_346_2"
  type: "BatchNorm"
  bottom: "res_stage_3_346_2"
  top: "res_stage_3_346_2"
  batch_norm_param {
      use_global_stats: false
  }
}
layer {
  name: "scale_stage_3_346_2"  
  type: "Scale"
  bottom: "res_stage_3_346_2"
  top: "res_stage_3_346_2"
  scale_param {
	bias_term: true
  }
}
 layer {
  name: "res_stage_3_346_2_relu"
  type: "ReLU"
  bottom: "res_stage_3_346_2"
  top: "res_stage_3_346_2"
}
layer {
  name: "res_stage_3_346_3"
  type: "Convolution"
  bottom: "res_stage_3_346_2"
  top: "res_stage_3_346_3"
  convolution_param {
    num_output: 1024
    pad: 0
    kernel_size: 1
    stride: 1
    weight_filler {
      type: "msra"
    }
    bias_term: false
  }
}
layer {
  name: "bn_stage_3_346_3"
  type: "BatchNorm"
  bottom: "res_stage_3_346_3"
  top: "res_stage_3_346_3"
  batch_norm_param {
      use_global_stats: false
  }
}
layer {
  name: "scale_stage_3_346_3"  
  type: "Scale"
  bottom: "res_stage_3_346_3"
  top: "res_stage_3_346_3"
  scale_param {
	bias_term: true
  }
}
 layer {
  name: "res_3_346"
  type: "Eltwise"
  bottom: "res_3_345"
  bottom: "res_stage_3_346_3"
  top: "res_3_346"
  eltwise_param {
    operation: SUM
  }
}
layer {
  name: "res_3_346_relu"
  type: "ReLU"
  bottom: "res_3_346"
  top: "res_3_346"
}
layer {
  name: "res_stage_3_347_1"
  type: "Convolution"
  bottom: "res_3_346"
  top: "res_stage_3_347_1"
  convolution_param {
    num_output: 256
    pad: 0
    kernel_size: 1
    stride: 1
    weight_filler {
      type: "msra"
    }
    bias_term: false
  }
}
layer {
  name: "bn_stage_3_347_1"
  type: "BatchNorm"
  bottom: "res_stage_3_347_1"
  top: "res_stage_3_347_1"
  batch_norm_param {
      use_global_stats: false
  }
}
layer {
  name: "scale_stage_3_347_1"  
  type: "Scale"
  bottom: "res_stage_3_347_1"
  top: "res_stage_3_347_1"
  scale_param {
	bias_term: true
  }
}
 layer {
  name: "res_stage_3_347_1_relu"
  type: "ReLU"
  bottom: "res_stage_3_347_1"
  top: "res_stage_3_347_1"
}
layer {
  name: "res_stage_3_347_2"
  type: "Convolution"
  bottom: "res_stage_3_347_1"
  top: "res_stage_3_347_2"
  convolution_param {
    num_output: 256
    pad: 1
    kernel_size: 3
    stride: 1
    weight_filler {
      type: "msra"
    }
    bias_term: false
  }
}
layer {
  name: "bn_stage_3_347_2"
  type: "BatchNorm"
  bottom: "res_stage_3_347_2"
  top: "res_stage_3_347_2"
  batch_norm_param {
      use_global_stats: false
  }
}
layer {
  name: "scale_stage_3_347_2"  
  type: "Scale"
  bottom: "res_stage_3_347_2"
  top: "res_stage_3_347_2"
  scale_param {
	bias_term: true
  }
}
 layer {
  name: "res_stage_3_347_2_relu"
  type: "ReLU"
  bottom: "res_stage_3_347_2"
  top: "res_stage_3_347_2"
}
layer {
  name: "res_stage_3_347_3"
  type: "Convolution"
  bottom: "res_stage_3_347_2"
  top: "res_stage_3_347_3"
  convolution_param {
    num_output: 1024
    pad: 0
    kernel_size: 1
    stride: 1
    weight_filler {
      type: "msra"
    }
    bias_term: false
  }
}
layer {
  name: "bn_stage_3_347_3"
  type: "BatchNorm"
  bottom: "res_stage_3_347_3"
  top: "res_stage_3_347_3"
  batch_norm_param {
      use_global_stats: false
  }
}
layer {
  name: "scale_stage_3_347_3"  
  type: "Scale"
  bottom: "res_stage_3_347_3"
  top: "res_stage_3_347_3"
  scale_param {
	bias_term: true
  }
}
 layer {
  name: "res_3_347"
  type: "Eltwise"
  bottom: "res_3_346"
  bottom: "res_stage_3_347_3"
  top: "res_3_347"
  eltwise_param {
    operation: SUM
  }
}
layer {
  name: "res_3_347_relu"
  type: "ReLU"
  bottom: "res_3_347"
  top: "res_3_347"
}
layer {
  name: "res_stage_3_348_1"
  type: "Convolution"
  bottom: "res_3_347"
  top: "res_stage_3_348_1"
  convolution_param {
    num_output: 256
    pad: 0
    kernel_size: 1
    stride: 1
    weight_filler {
      type: "msra"
    }
    bias_term: false
  }
}
layer {
  name: "bn_stage_3_348_1"
  type: "BatchNorm"
  bottom: "res_stage_3_348_1"
  top: "res_stage_3_348_1"
  batch_norm_param {
      use_global_stats: false
  }
}
layer {
  name: "scale_stage_3_348_1"  
  type: "Scale"
  bottom: "res_stage_3_348_1"
  top: "res_stage_3_348_1"
  scale_param {
	bias_term: true
  }
}
 layer {
  name: "res_stage_3_348_1_relu"
  type: "ReLU"
  bottom: "res_stage_3_348_1"
  top: "res_stage_3_348_1"
}
layer {
  name: "res_stage_3_348_2"
  type: "Convolution"
  bottom: "res_stage_3_348_1"
  top: "res_stage_3_348_2"
  convolution_param {
    num_output: 256
    pad: 1
    kernel_size: 3
    stride: 1
    weight_filler {
      type: "msra"
    }
    bias_term: false
  }
}
layer {
  name: "bn_stage_3_348_2"
  type: "BatchNorm"
  bottom: "res_stage_3_348_2"
  top: "res_stage_3_348_2"
  batch_norm_param {
      use_global_stats: false
  }
}
layer {
  name: "scale_stage_3_348_2"  
  type: "Scale"
  bottom: "res_stage_3_348_2"
  top: "res_stage_3_348_2"
  scale_param {
	bias_term: true
  }
}
 layer {
  name: "res_stage_3_348_2_relu"
  type: "ReLU"
  bottom: "res_stage_3_348_2"
  top: "res_stage_3_348_2"
}
layer {
  name: "res_stage_3_348_3"
  type: "Convolution"
  bottom: "res_stage_3_348_2"
  top: "res_stage_3_348_3"
  convolution_param {
    num_output: 1024
    pad: 0
    kernel_size: 1
    stride: 1
    weight_filler {
      type: "msra"
    }
    bias_term: false
  }
}
layer {
  name: "bn_stage_3_348_3"
  type: "BatchNorm"
  bottom: "res_stage_3_348_3"
  top: "res_stage_3_348_3"
  batch_norm_param {
      use_global_stats: false
  }
}
layer {
  name: "scale_stage_3_348_3"  
  type: "Scale"
  bottom: "res_stage_3_348_3"
  top: "res_stage_3_348_3"
  scale_param {
	bias_term: true
  }
}
 layer {
  name: "res_3_348"
  type: "Eltwise"
  bottom: "res_3_347"
  bottom: "res_stage_3_348_3"
  top: "res_3_348"
  eltwise_param {
    operation: SUM
  }
}
layer {
  name: "res_3_348_relu"
  type: "ReLU"
  bottom: "res_3_348"
  top: "res_3_348"
}
layer {
  name: "res_stage_3_349_1"
  type: "Convolution"
  bottom: "res_3_348"
  top: "res_stage_3_349_1"
  convolution_param {
    num_output: 256
    pad: 0
    kernel_size: 1
    stride: 1
    weight_filler {
      type: "msra"
    }
    bias_term: false
  }
}
layer {
  name: "bn_stage_3_349_1"
  type: "BatchNorm"
  bottom: "res_stage_3_349_1"
  top: "res_stage_3_349_1"
  batch_norm_param {
      use_global_stats: false
  }
}
layer {
  name: "scale_stage_3_349_1"  
  type: "Scale"
  bottom: "res_stage_3_349_1"
  top: "res_stage_3_349_1"
  scale_param {
	bias_term: true
  }
}
 layer {
  name: "res_stage_3_349_1_relu"
  type: "ReLU"
  bottom: "res_stage_3_349_1"
  top: "res_stage_3_349_1"
}
layer {
  name: "res_stage_3_349_2"
  type: "Convolution"
  bottom: "res_stage_3_349_1"
  top: "res_stage_3_349_2"
  convolution_param {
    num_output: 256
    pad: 1
    kernel_size: 3
    stride: 1
    weight_filler {
      type: "msra"
    }
    bias_term: false
  }
}
layer {
  name: "bn_stage_3_349_2"
  type: "BatchNorm"
  bottom: "res_stage_3_349_2"
  top: "res_stage_3_349_2"
  batch_norm_param {
      use_global_stats: false
  }
}
layer {
  name: "scale_stage_3_349_2"  
  type: "Scale"
  bottom: "res_stage_3_349_2"
  top: "res_stage_3_349_2"
  scale_param {
	bias_term: true
  }
}
 layer {
  name: "res_stage_3_349_2_relu"
  type: "ReLU"
  bottom: "res_stage_3_349_2"
  top: "res_stage_3_349_2"
}
layer {
  name: "res_stage_3_349_3"
  type: "Convolution"
  bottom: "res_stage_3_349_2"
  top: "res_stage_3_349_3"
  convolution_param {
    num_output: 1024
    pad: 0
    kernel_size: 1
    stride: 1
    weight_filler {
      type: "msra"
    }
    bias_term: false
  }
}
layer {
  name: "bn_stage_3_349_3"
  type: "BatchNorm"
  bottom: "res_stage_3_349_3"
  top: "res_stage_3_349_3"
  batch_norm_param {
      use_global_stats: false
  }
}
layer {
  name: "scale_stage_3_349_3"  
  type: "Scale"
  bottom: "res_stage_3_349_3"
  top: "res_stage_3_349_3"
  scale_param {
	bias_term: true
  }
}
 layer {
  name: "res_3_349"
  type: "Eltwise"
  bottom: "res_3_348"
  bottom: "res_stage_3_349_3"
  top: "res_3_349"
  eltwise_param {
    operation: SUM
  }
}
layer {
  name: "res_3_349_relu"
  type: "ReLU"
  bottom: "res_3_349"
  top: "res_3_349"
}
layer {
  name: "res_stage_3_350_1"
  type: "Convolution"
  bottom: "res_3_349"
  top: "res_stage_3_350_1"
  convolution_param {
    num_output: 256
    pad: 0
    kernel_size: 1
    stride: 1
    weight_filler {
      type: "msra"
    }
    bias_term: false
  }
}
layer {
  name: "bn_stage_3_350_1"
  type: "BatchNorm"
  bottom: "res_stage_3_350_1"
  top: "res_stage_3_350_1"
  batch_norm_param {
      use_global_stats: false
  }
}
layer {
  name: "scale_stage_3_350_1"  
  type: "Scale"
  bottom: "res_stage_3_350_1"
  top: "res_stage_3_350_1"
  scale_param {
	bias_term: true
  }
}
 layer {
  name: "res_stage_3_350_1_relu"
  type: "ReLU"
  bottom: "res_stage_3_350_1"
  top: "res_stage_3_350_1"
}
layer {
  name: "res_stage_3_350_2"
  type: "Convolution"
  bottom: "res_stage_3_350_1"
  top: "res_stage_3_350_2"
  convolution_param {
    num_output: 256
    pad: 1
    kernel_size: 3
    stride: 1
    weight_filler {
      type: "msra"
    }
    bias_term: false
  }
}
layer {
  name: "bn_stage_3_350_2"
  type: "BatchNorm"
  bottom: "res_stage_3_350_2"
  top: "res_stage_3_350_2"
  batch_norm_param {
      use_global_stats: false
  }
}
layer {
  name: "scale_stage_3_350_2"  
  type: "Scale"
  bottom: "res_stage_3_350_2"
  top: "res_stage_3_350_2"
  scale_param {
	bias_term: true
  }
}
 layer {
  name: "res_stage_3_350_2_relu"
  type: "ReLU"
  bottom: "res_stage_3_350_2"
  top: "res_stage_3_350_2"
}
layer {
  name: "res_stage_3_350_3"
  type: "Convolution"
  bottom: "res_stage_3_350_2"
  top: "res_stage_3_350_3"
  convolution_param {
    num_output: 1024
    pad: 0
    kernel_size: 1
    stride: 1
    weight_filler {
      type: "msra"
    }
    bias_term: false
  }
}
layer {
  name: "bn_stage_3_350_3"
  type: "BatchNorm"
  bottom: "res_stage_3_350_3"
  top: "res_stage_3_350_3"
  batch_norm_param {
      use_global_stats: false
  }
}
layer {
  name: "scale_stage_3_350_3"  
  type: "Scale"
  bottom: "res_stage_3_350_3"
  top: "res_stage_3_350_3"
  scale_param {
	bias_term: true
  }
}
 layer {
  name: "res_3_350"
  type: "Eltwise"
  bottom: "res_3_349"
  bottom: "res_stage_3_350_3"
  top: "res_3_350"
  eltwise_param {
    operation: SUM
  }
}
layer {
  name: "res_3_350_relu"
  type: "ReLU"
  bottom: "res_3_350"
  top: "res_3_350"
}
layer {
  name: "res_stage_3_351_1"
  type: "Convolution"
  bottom: "res_3_350"
  top: "res_stage_3_351_1"
  convolution_param {
    num_output: 256
    pad: 0
    kernel_size: 1
    stride: 1
    weight_filler {
      type: "msra"
    }
    bias_term: false
  }
}
layer {
  name: "bn_stage_3_351_1"
  type: "BatchNorm"
  bottom: "res_stage_3_351_1"
  top: "res_stage_3_351_1"
  batch_norm_param {
      use_global_stats: false
  }
}
layer {
  name: "scale_stage_3_351_1"  
  type: "Scale"
  bottom: "res_stage_3_351_1"
  top: "res_stage_3_351_1"
  scale_param {
	bias_term: true
  }
}
 layer {
  name: "res_stage_3_351_1_relu"
  type: "ReLU"
  bottom: "res_stage_3_351_1"
  top: "res_stage_3_351_1"
}
layer {
  name: "res_stage_3_351_2"
  type: "Convolution"
  bottom: "res_stage_3_351_1"
  top: "res_stage_3_351_2"
  convolution_param {
    num_output: 256
    pad: 1
    kernel_size: 3
    stride: 1
    weight_filler {
      type: "msra"
    }
    bias_term: false
  }
}
layer {
  name: "bn_stage_3_351_2"
  type: "BatchNorm"
  bottom: "res_stage_3_351_2"
  top: "res_stage_3_351_2"
  batch_norm_param {
      use_global_stats: false
  }
}
layer {
  name: "scale_stage_3_351_2"  
  type: "Scale"
  bottom: "res_stage_3_351_2"
  top: "res_stage_3_351_2"
  scale_param {
	bias_term: true
  }
}
 layer {
  name: "res_stage_3_351_2_relu"
  type: "ReLU"
  bottom: "res_stage_3_351_2"
  top: "res_stage_3_351_2"
}
layer {
  name: "res_stage_3_351_3"
  type: "Convolution"
  bottom: "res_stage_3_351_2"
  top: "res_stage_3_351_3"
  convolution_param {
    num_output: 1024
    pad: 0
    kernel_size: 1
    stride: 1
    weight_filler {
      type: "msra"
    }
    bias_term: false
  }
}
layer {
  name: "bn_stage_3_351_3"
  type: "BatchNorm"
  bottom: "res_stage_3_351_3"
  top: "res_stage_3_351_3"
  batch_norm_param {
      use_global_stats: false
  }
}
layer {
  name: "scale_stage_3_351_3"  
  type: "Scale"
  bottom: "res_stage_3_351_3"
  top: "res_stage_3_351_3"
  scale_param {
	bias_term: true
  }
}
 layer {
  name: "res_3_351"
  type: "Eltwise"
  bottom: "res_3_350"
  bottom: "res_stage_3_351_3"
  top: "res_3_351"
  eltwise_param {
    operation: SUM
  }
}
layer {
  name: "res_3_351_relu"
  type: "ReLU"
  bottom: "res_3_351"
  top: "res_3_351"
}
layer {
  name: "res_stage_3_352_1"
  type: "Convolution"
  bottom: "res_3_351"
  top: "res_stage_3_352_1"
  convolution_param {
    num_output: 256
    pad: 0
    kernel_size: 1
    stride: 1
    weight_filler {
      type: "msra"
    }
    bias_term: false
  }
}
layer {
  name: "bn_stage_3_352_1"
  type: "BatchNorm"
  bottom: "res_stage_3_352_1"
  top: "res_stage_3_352_1"
  batch_norm_param {
      use_global_stats: false
  }
}
layer {
  name: "scale_stage_3_352_1"  
  type: "Scale"
  bottom: "res_stage_3_352_1"
  top: "res_stage_3_352_1"
  scale_param {
	bias_term: true
  }
}
 layer {
  name: "res_stage_3_352_1_relu"
  type: "ReLU"
  bottom: "res_stage_3_352_1"
  top: "res_stage_3_352_1"
}
layer {
  name: "res_stage_3_352_2"
  type: "Convolution"
  bottom: "res_stage_3_352_1"
  top: "res_stage_3_352_2"
  convolution_param {
    num_output: 256
    pad: 1
    kernel_size: 3
    stride: 1
    weight_filler {
      type: "msra"
    }
    bias_term: false
  }
}
layer {
  name: "bn_stage_3_352_2"
  type: "BatchNorm"
  bottom: "res_stage_3_352_2"
  top: "res_stage_3_352_2"
  batch_norm_param {
      use_global_stats: false
  }
}
layer {
  name: "scale_stage_3_352_2"  
  type: "Scale"
  bottom: "res_stage_3_352_2"
  top: "res_stage_3_352_2"
  scale_param {
	bias_term: true
  }
}
 layer {
  name: "res_stage_3_352_2_relu"
  type: "ReLU"
  bottom: "res_stage_3_352_2"
  top: "res_stage_3_352_2"
}
layer {
  name: "res_stage_3_352_3"
  type: "Convolution"
  bottom: "res_stage_3_352_2"
  top: "res_stage_3_352_3"
  convolution_param {
    num_output: 1024
    pad: 0
    kernel_size: 1
    stride: 1
    weight_filler {
      type: "msra"
    }
    bias_term: false
  }
}
layer {
  name: "bn_stage_3_352_3"
  type: "BatchNorm"
  bottom: "res_stage_3_352_3"
  top: "res_stage_3_352_3"
  batch_norm_param {
      use_global_stats: false
  }
}
layer {
  name: "scale_stage_3_352_3"  
  type: "Scale"
  bottom: "res_stage_3_352_3"
  top: "res_stage_3_352_3"
  scale_param {
	bias_term: true
  }
}
 layer {
  name: "res_3_352"
  type: "Eltwise"
  bottom: "res_3_351"
  bottom: "res_stage_3_352_3"
  top: "res_3_352"
  eltwise_param {
    operation: SUM
  }
}
layer {
  name: "res_3_352_relu"
  type: "ReLU"
  bottom: "res_3_352"
  top: "res_3_352"
}
layer {
  name: "res_stage_3_353_1"
  type: "Convolution"
  bottom: "res_3_352"
  top: "res_stage_3_353_1"
  convolution_param {
    num_output: 256
    pad: 0
    kernel_size: 1
    stride: 1
    weight_filler {
      type: "msra"
    }
    bias_term: false
  }
}
layer {
  name: "bn_stage_3_353_1"
  type: "BatchNorm"
  bottom: "res_stage_3_353_1"
  top: "res_stage_3_353_1"
  batch_norm_param {
      use_global_stats: false
  }
}
layer {
  name: "scale_stage_3_353_1"  
  type: "Scale"
  bottom: "res_stage_3_353_1"
  top: "res_stage_3_353_1"
  scale_param {
	bias_term: true
  }
}
 layer {
  name: "res_stage_3_353_1_relu"
  type: "ReLU"
  bottom: "res_stage_3_353_1"
  top: "res_stage_3_353_1"
}
layer {
  name: "res_stage_3_353_2"
  type: "Convolution"
  bottom: "res_stage_3_353_1"
  top: "res_stage_3_353_2"
  convolution_param {
    num_output: 256
    pad: 1
    kernel_size: 3
    stride: 1
    weight_filler {
      type: "msra"
    }
    bias_term: false
  }
}
layer {
  name: "bn_stage_3_353_2"
  type: "BatchNorm"
  bottom: "res_stage_3_353_2"
  top: "res_stage_3_353_2"
  batch_norm_param {
      use_global_stats: false
  }
}
layer {
  name: "scale_stage_3_353_2"  
  type: "Scale"
  bottom: "res_stage_3_353_2"
  top: "res_stage_3_353_2"
  scale_param {
	bias_term: true
  }
}
 layer {
  name: "res_stage_3_353_2_relu"
  type: "ReLU"
  bottom: "res_stage_3_353_2"
  top: "res_stage_3_353_2"
}
layer {
  name: "res_stage_3_353_3"
  type: "Convolution"
  bottom: "res_stage_3_353_2"
  top: "res_stage_3_353_3"
  convolution_param {
    num_output: 1024
    pad: 0
    kernel_size: 1
    stride: 1
    weight_filler {
      type: "msra"
    }
    bias_term: false
  }
}
layer {
  name: "bn_stage_3_353_3"
  type: "BatchNorm"
  bottom: "res_stage_3_353_3"
  top: "res_stage_3_353_3"
  batch_norm_param {
      use_global_stats: false
  }
}
layer {
  name: "scale_stage_3_353_3"  
  type: "Scale"
  bottom: "res_stage_3_353_3"
  top: "res_stage_3_353_3"
  scale_param {
	bias_term: true
  }
}
 layer {
  name: "res_3_353"
  type: "Eltwise"
  bottom: "res_3_352"
  bottom: "res_stage_3_353_3"
  top: "res_3_353"
  eltwise_param {
    operation: SUM
  }
}
layer {
  name: "res_3_353_relu"
  type: "ReLU"
  bottom: "res_3_353"
  top: "res_3_353"
}
layer {
  name: "res_stage_3_354_1"
  type: "Convolution"
  bottom: "res_3_353"
  top: "res_stage_3_354_1"
  convolution_param {
    num_output: 256
    pad: 0
    kernel_size: 1
    stride: 1
    weight_filler {
      type: "msra"
    }
    bias_term: false
  }
}
layer {
  name: "bn_stage_3_354_1"
  type: "BatchNorm"
  bottom: "res_stage_3_354_1"
  top: "res_stage_3_354_1"
  batch_norm_param {
      use_global_stats: false
  }
}
layer {
  name: "scale_stage_3_354_1"  
  type: "Scale"
  bottom: "res_stage_3_354_1"
  top: "res_stage_3_354_1"
  scale_param {
	bias_term: true
  }
}
 layer {
  name: "res_stage_3_354_1_relu"
  type: "ReLU"
  bottom: "res_stage_3_354_1"
  top: "res_stage_3_354_1"
}
layer {
  name: "res_stage_3_354_2"
  type: "Convolution"
  bottom: "res_stage_3_354_1"
  top: "res_stage_3_354_2"
  convolution_param {
    num_output: 256
    pad: 1
    kernel_size: 3
    stride: 1
    weight_filler {
      type: "msra"
    }
    bias_term: false
  }
}
layer {
  name: "bn_stage_3_354_2"
  type: "BatchNorm"
  bottom: "res_stage_3_354_2"
  top: "res_stage_3_354_2"
  batch_norm_param {
      use_global_stats: false
  }
}
layer {
  name: "scale_stage_3_354_2"  
  type: "Scale"
  bottom: "res_stage_3_354_2"
  top: "res_stage_3_354_2"
  scale_param {
	bias_term: true
  }
}
 layer {
  name: "res_stage_3_354_2_relu"
  type: "ReLU"
  bottom: "res_stage_3_354_2"
  top: "res_stage_3_354_2"
}
layer {
  name: "res_stage_3_354_3"
  type: "Convolution"
  bottom: "res_stage_3_354_2"
  top: "res_stage_3_354_3"
  convolution_param {
    num_output: 1024
    pad: 0
    kernel_size: 1
    stride: 1
    weight_filler {
      type: "msra"
    }
    bias_term: false
  }
}
layer {
  name: "bn_stage_3_354_3"
  type: "BatchNorm"
  bottom: "res_stage_3_354_3"
  top: "res_stage_3_354_3"
  batch_norm_param {
      use_global_stats: false
  }
}
layer {
  name: "scale_stage_3_354_3"  
  type: "Scale"
  bottom: "res_stage_3_354_3"
  top: "res_stage_3_354_3"
  scale_param {
	bias_term: true
  }
}
 layer {
  name: "res_3_354"
  type: "Eltwise"
  bottom: "res_3_353"
  bottom: "res_stage_3_354_3"
  top: "res_3_354"
  eltwise_param {
    operation: SUM
  }
}
layer {
  name: "res_3_354_relu"
  type: "ReLU"
  bottom: "res_3_354"
  top: "res_3_354"
}
layer {
  name: "res_stage_3_355_1"
  type: "Convolution"
  bottom: "res_3_354"
  top: "res_stage_3_355_1"
  convolution_param {
    num_output: 256
    pad: 0
    kernel_size: 1
    stride: 1
    weight_filler {
      type: "msra"
    }
    bias_term: false
  }
}
layer {
  name: "bn_stage_3_355_1"
  type: "BatchNorm"
  bottom: "res_stage_3_355_1"
  top: "res_stage_3_355_1"
  batch_norm_param {
      use_global_stats: false
  }
}
layer {
  name: "scale_stage_3_355_1"  
  type: "Scale"
  bottom: "res_stage_3_355_1"
  top: "res_stage_3_355_1"
  scale_param {
	bias_term: true
  }
}
 layer {
  name: "res_stage_3_355_1_relu"
  type: "ReLU"
  bottom: "res_stage_3_355_1"
  top: "res_stage_3_355_1"
}
layer {
  name: "res_stage_3_355_2"
  type: "Convolution"
  bottom: "res_stage_3_355_1"
  top: "res_stage_3_355_2"
  convolution_param {
    num_output: 256
    pad: 1
    kernel_size: 3
    stride: 1
    weight_filler {
      type: "msra"
    }
    bias_term: false
  }
}
layer {
  name: "bn_stage_3_355_2"
  type: "BatchNorm"
  bottom: "res_stage_3_355_2"
  top: "res_stage_3_355_2"
  batch_norm_param {
      use_global_stats: false
  }
}
layer {
  name: "scale_stage_3_355_2"  
  type: "Scale"
  bottom: "res_stage_3_355_2"
  top: "res_stage_3_355_2"
  scale_param {
	bias_term: true
  }
}
 layer {
  name: "res_stage_3_355_2_relu"
  type: "ReLU"
  bottom: "res_stage_3_355_2"
  top: "res_stage_3_355_2"
}
layer {
  name: "res_stage_3_355_3"
  type: "Convolution"
  bottom: "res_stage_3_355_2"
  top: "res_stage_3_355_3"
  convolution_param {
    num_output: 1024
    pad: 0
    kernel_size: 1
    stride: 1
    weight_filler {
      type: "msra"
    }
    bias_term: false
  }
}
layer {
  name: "bn_stage_3_355_3"
  type: "BatchNorm"
  bottom: "res_stage_3_355_3"
  top: "res_stage_3_355_3"
  batch_norm_param {
      use_global_stats: false
  }
}
layer {
  name: "scale_stage_3_355_3"  
  type: "Scale"
  bottom: "res_stage_3_355_3"
  top: "res_stage_3_355_3"
  scale_param {
	bias_term: true
  }
}
 layer {
  name: "res_3_355"
  type: "Eltwise"
  bottom: "res_3_354"
  bottom: "res_stage_3_355_3"
  top: "res_3_355"
  eltwise_param {
    operation: SUM
  }
}
layer {
  name: "res_3_355_relu"
  type: "ReLU"
  bottom: "res_3_355"
  top: "res_3_355"
}
layer {
  name: "res_stage_3_356_1"
  type: "Convolution"
  bottom: "res_3_355"
  top: "res_stage_3_356_1"
  convolution_param {
    num_output: 256
    pad: 0
    kernel_size: 1
    stride: 1
    weight_filler {
      type: "msra"
    }
    bias_term: false
  }
}
layer {
  name: "bn_stage_3_356_1"
  type: "BatchNorm"
  bottom: "res_stage_3_356_1"
  top: "res_stage_3_356_1"
  batch_norm_param {
      use_global_stats: false
  }
}
layer {
  name: "scale_stage_3_356_1"  
  type: "Scale"
  bottom: "res_stage_3_356_1"
  top: "res_stage_3_356_1"
  scale_param {
	bias_term: true
  }
}
 layer {
  name: "res_stage_3_356_1_relu"
  type: "ReLU"
  bottom: "res_stage_3_356_1"
  top: "res_stage_3_356_1"
}
layer {
  name: "res_stage_3_356_2"
  type: "Convolution"
  bottom: "res_stage_3_356_1"
  top: "res_stage_3_356_2"
  convolution_param {
    num_output: 256
    pad: 1
    kernel_size: 3
    stride: 1
    weight_filler {
      type: "msra"
    }
    bias_term: false
  }
}
layer {
  name: "bn_stage_3_356_2"
  type: "BatchNorm"
  bottom: "res_stage_3_356_2"
  top: "res_stage_3_356_2"
  batch_norm_param {
      use_global_stats: false
  }
}
layer {
  name: "scale_stage_3_356_2"  
  type: "Scale"
  bottom: "res_stage_3_356_2"
  top: "res_stage_3_356_2"
  scale_param {
	bias_term: true
  }
}
 layer {
  name: "res_stage_3_356_2_relu"
  type: "ReLU"
  bottom: "res_stage_3_356_2"
  top: "res_stage_3_356_2"
}
layer {
  name: "res_stage_3_356_3"
  type: "Convolution"
  bottom: "res_stage_3_356_2"
  top: "res_stage_3_356_3"
  convolution_param {
    num_output: 1024
    pad: 0
    kernel_size: 1
    stride: 1
    weight_filler {
      type: "msra"
    }
    bias_term: false
  }
}
layer {
  name: "bn_stage_3_356_3"
  type: "BatchNorm"
  bottom: "res_stage_3_356_3"
  top: "res_stage_3_356_3"
  batch_norm_param {
      use_global_stats: false
  }
}
layer {
  name: "scale_stage_3_356_3"  
  type: "Scale"
  bottom: "res_stage_3_356_3"
  top: "res_stage_3_356_3"
  scale_param {
	bias_term: true
  }
}
 layer {
  name: "res_3_356"
  type: "Eltwise"
  bottom: "res_3_355"
  bottom: "res_stage_3_356_3"
  top: "res_3_356"
  eltwise_param {
    operation: SUM
  }
}
layer {
  name: "res_3_356_relu"
  type: "ReLU"
  bottom: "res_3_356"
  top: "res_3_356"
}
layer {
  name: "res_stage_3_357_1"
  type: "Convolution"
  bottom: "res_3_356"
  top: "res_stage_3_357_1"
  convolution_param {
    num_output: 256
    pad: 0
    kernel_size: 1
    stride: 1
    weight_filler {
      type: "msra"
    }
    bias_term: false
  }
}
layer {
  name: "bn_stage_3_357_1"
  type: "BatchNorm"
  bottom: "res_stage_3_357_1"
  top: "res_stage_3_357_1"
  batch_norm_param {
      use_global_stats: false
  }
}
layer {
  name: "scale_stage_3_357_1"  
  type: "Scale"
  bottom: "res_stage_3_357_1"
  top: "res_stage_3_357_1"
  scale_param {
	bias_term: true
  }
}
 layer {
  name: "res_stage_3_357_1_relu"
  type: "ReLU"
  bottom: "res_stage_3_357_1"
  top: "res_stage_3_357_1"
}
layer {
  name: "res_stage_3_357_2"
  type: "Convolution"
  bottom: "res_stage_3_357_1"
  top: "res_stage_3_357_2"
  convolution_param {
    num_output: 256
    pad: 1
    kernel_size: 3
    stride: 1
    weight_filler {
      type: "msra"
    }
    bias_term: false
  }
}
layer {
  name: "bn_stage_3_357_2"
  type: "BatchNorm"
  bottom: "res_stage_3_357_2"
  top: "res_stage_3_357_2"
  batch_norm_param {
      use_global_stats: false
  }
}
layer {
  name: "scale_stage_3_357_2"  
  type: "Scale"
  bottom: "res_stage_3_357_2"
  top: "res_stage_3_357_2"
  scale_param {
	bias_term: true
  }
}
 layer {
  name: "res_stage_3_357_2_relu"
  type: "ReLU"
  bottom: "res_stage_3_357_2"
  top: "res_stage_3_357_2"
}
layer {
  name: "res_stage_3_357_3"
  type: "Convolution"
  bottom: "res_stage_3_357_2"
  top: "res_stage_3_357_3"
  convolution_param {
    num_output: 1024
    pad: 0
    kernel_size: 1
    stride: 1
    weight_filler {
      type: "msra"
    }
    bias_term: false
  }
}
layer {
  name: "bn_stage_3_357_3"
  type: "BatchNorm"
  bottom: "res_stage_3_357_3"
  top: "res_stage_3_357_3"
  batch_norm_param {
      use_global_stats: false
  }
}
layer {
  name: "scale_stage_3_357_3"  
  type: "Scale"
  bottom: "res_stage_3_357_3"
  top: "res_stage_3_357_3"
  scale_param {
	bias_term: true
  }
}
 layer {
  name: "res_3_357"
  type: "Eltwise"
  bottom: "res_3_356"
  bottom: "res_stage_3_357_3"
  top: "res_3_357"
  eltwise_param {
    operation: SUM
  }
}
layer {
  name: "res_3_357_relu"
  type: "ReLU"
  bottom: "res_3_357"
  top: "res_3_357"
}
layer {
  name: "res_4_branch1"
  type: "Convolution"
  bottom: "res_3_357"
  top: "res_4_branch1"
  convolution_param {
    num_output: 2048
    pad: 0
    kernel_size: 1
    stride: 2
    weight_filler {
      type: "msra"
    }
    bias_term: false
  }
}
layer {
  name: "bn_4_branch1"
  type: "BatchNorm"
  bottom: "res_4_branch1"
  top: "res_4_branch1"
  batch_norm_param {
      use_global_stats: false
  }
}
layer {
  name: "scale_4_branch1"  
  type: "Scale"
  bottom: "res_4_branch1"
  top: "res_4_branch1"
  scale_param {
	bias_term: true
  }
}
 layer {
  name: "res_stage_4_1_1"
  type: "Convolution"
  bottom: "res_3_357"
  top: "res_stage_4_1_1"
  convolution_param {
    num_output: 512
    pad: 0
    kernel_size: 1
    stride: 2
    weight_filler {
      type: "msra"
    }
    bias_term: false
  }
}
layer {
  name: "bn_stage_4_1_1"
  type: "BatchNorm"
  bottom: "res_stage_4_1_1"
  top: "res_stage_4_1_1"
  batch_norm_param {
      use_global_stats: false
  }
}
layer {
  name: "scale_stage_4_1_1"  
  type: "Scale"
  bottom: "res_stage_4_1_1"
  top: "res_stage_4_1_1"
  scale_param {
	bias_term: true
  }
}
 layer {
  name: "res_stage_4_1_1_relu"
  type: "ReLU"
  bottom: "res_stage_4_1_1"
  top: "res_stage_4_1_1"
}
layer {
  name: "res_stage_4_1_2"
  type: "Convolution"
  bottom: "res_stage_4_1_1"
  top: "res_stage_4_1_2"
  convolution_param {
    num_output: 512
    pad: 1
    kernel_size: 3
    stride: 1
    weight_filler {
      type: "msra"
    }
    bias_term: false
  }
}
layer {
  name: "bn_stage_4_1_2"
  type: "BatchNorm"
  bottom: "res_stage_4_1_2"
  top: "res_stage_4_1_2"
  batch_norm_param {
      use_global_stats: false
  }
}
layer {
  name: "scale_stage_4_1_2"  
  type: "Scale"
  bottom: "res_stage_4_1_2"
  top: "res_stage_4_1_2"
  scale_param {
	bias_term: true
  }
}
 layer {
  name: "res_stage_4_1_2_relu"
  type: "ReLU"
  bottom: "res_stage_4_1_2"
  top: "res_stage_4_1_2"
}
layer {
  name: "res_stage_4_1_3"
  type: "Convolution"
  bottom: "res_stage_4_1_2"
  top: "res_stage_4_1_3"
  convolution_param {
    num_output: 2048
    pad: 0
    kernel_size: 1
    stride: 1
    weight_filler {
      type: "msra"
    }
    bias_term: false
  }
}
layer {
  name: "bn_stage_4_1_3"
  type: "BatchNorm"
  bottom: "res_stage_4_1_3"
  top: "res_stage_4_1_3"
  batch_norm_param {
      use_global_stats: false
  }
}
layer {
  name: "scale_stage_4_1_3"  
  type: "Scale"
  bottom: "res_stage_4_1_3"
  top: "res_stage_4_1_3"
  scale_param {
	bias_term: true
  }
}
 layer {
  name: "res_4_1"
  type: "Eltwise"
  bottom: "res_4_branch1"
  bottom: "res_stage_4_1_3"
  top: "res_4_1"
  eltwise_param {
    operation: SUM
  }
}
layer {
  name: "res_4_1_relu"
  type: "ReLU"
  bottom: "res_4_1"
  top: "res_4_1"
}
layer {
  name: "res_stage_4_2_1"
  type: "Convolution"
  bottom: "res_4_1"
  top: "res_stage_4_2_1"
  convolution_param {
    num_output: 512
    pad: 0
    kernel_size: 1
    stride: 1
    weight_filler {
      type: "msra"
    }
    bias_term: false
  }
}
layer {
  name: "bn_stage_4_2_1"
  type: "BatchNorm"
  bottom: "res_stage_4_2_1"
  top: "res_stage_4_2_1"
  batch_norm_param {
      use_global_stats: false
  }
}
layer {
  name: "scale_stage_4_2_1"  
  type: "Scale"
  bottom: "res_stage_4_2_1"
  top: "res_stage_4_2_1"
  scale_param {
	bias_term: true
  }
}
 layer {
  name: "res_stage_4_2_1_relu"
  type: "ReLU"
  bottom: "res_stage_4_2_1"
  top: "res_stage_4_2_1"
}
layer {
  name: "res_stage_4_2_2"
  type: "Convolution"
  bottom: "res_stage_4_2_1"
  top: "res_stage_4_2_2"
  convolution_param {
    num_output: 512
    pad: 1
    kernel_size: 3
    stride: 1
    weight_filler {
      type: "msra"
    }
    bias_term: false
  }
}
layer {
  name: "bn_stage_4_2_2"
  type: "BatchNorm"
  bottom: "res_stage_4_2_2"
  top: "res_stage_4_2_2"
  batch_norm_param {
      use_global_stats: false
  }
}
layer {
  name: "scale_stage_4_2_2"  
  type: "Scale"
  bottom: "res_stage_4_2_2"
  top: "res_stage_4_2_2"
  scale_param {
	bias_term: true
  }
}
 layer {
  name: "res_stage_4_2_2_relu"
  type: "ReLU"
  bottom: "res_stage_4_2_2"
  top: "res_stage_4_2_2"
}
layer {
  name: "res_stage_4_2_3"
  type: "Convolution"
  bottom: "res_stage_4_2_2"
  top: "res_stage_4_2_3"
  convolution_param {
    num_output: 2048
    pad: 0
    kernel_size: 1
    stride: 1
    weight_filler {
      type: "msra"
    }
    bias_term: false
  }
}
layer {
  name: "bn_stage_4_2_3"
  type: "BatchNorm"
  bottom: "res_stage_4_2_3"
  top: "res_stage_4_2_3"
  batch_norm_param {
      use_global_stats: false
  }
}
layer {
  name: "scale_stage_4_2_3"  
  type: "Scale"
  bottom: "res_stage_4_2_3"
  top: "res_stage_4_2_3"
  scale_param {
	bias_term: true
  }
}
 layer {
  name: "res_4_2"
  type: "Eltwise"
  bottom: "res_4_1"
  bottom: "res_stage_4_2_3"
  top: "res_4_2"
  eltwise_param {
    operation: SUM
  }
}
layer {
  name: "res_4_2_relu"
  type: "ReLU"
  bottom: "res_4_2"
  top: "res_4_2"
}
layer {
  name: "res_stage_4_3_1"
  type: "Convolution"
  bottom: "res_4_2"
  top: "res_stage_4_3_1"
  convolution_param {
    num_output: 512
    pad: 0
    kernel_size: 1
    stride: 1
    weight_filler {
      type: "msra"
    }
    bias_term: false
  }
}
layer {
  name: "bn_stage_4_3_1"
  type: "BatchNorm"
  bottom: "res_stage_4_3_1"
  top: "res_stage_4_3_1"
  batch_norm_param {
      use_global_stats: false
  }
}
layer {
  name: "scale_stage_4_3_1"  
  type: "Scale"
  bottom: "res_stage_4_3_1"
  top: "res_stage_4_3_1"
  scale_param {
	bias_term: true
  }
}
 layer {
  name: "res_stage_4_3_1_relu"
  type: "ReLU"
  bottom: "res_stage_4_3_1"
  top: "res_stage_4_3_1"
}
layer {
  name: "res_stage_4_3_2"
  type: "Convolution"
  bottom: "res_stage_4_3_1"
  top: "res_stage_4_3_2"
  convolution_param {
    num_output: 512
    pad: 1
    kernel_size: 3
    stride: 1
    weight_filler {
      type: "msra"
    }
    bias_term: false
  }
}
layer {
  name: "bn_stage_4_3_2"
  type: "BatchNorm"
  bottom: "res_stage_4_3_2"
  top: "res_stage_4_3_2"
  batch_norm_param {
      use_global_stats: false
  }
}
layer {
  name: "scale_stage_4_3_2"  
  type: "Scale"
  bottom: "res_stage_4_3_2"
  top: "res_stage_4_3_2"
  scale_param {
	bias_term: true
  }
}
 layer {
  name: "res_stage_4_3_2_relu"
  type: "ReLU"
  bottom: "res_stage_4_3_2"
  top: "res_stage_4_3_2"
}
layer {
  name: "res_stage_4_3_3"
  type: "Convolution"
  bottom: "res_stage_4_3_2"
  top: "res_stage_4_3_3"
  convolution_param {
    num_output: 2048
    pad: 0
    kernel_size: 1
    stride: 1
    weight_filler {
      type: "msra"
    }
    bias_term: false
  }
}
layer {
  name: "bn_stage_4_3_3"
  type: "BatchNorm"
  bottom: "res_stage_4_3_3"
  top: "res_stage_4_3_3"
  batch_norm_param {
      use_global_stats: false
  }
}
layer {
  name: "scale_stage_4_3_3"  
  type: "Scale"
  bottom: "res_stage_4_3_3"
  top: "res_stage_4_3_3"
  scale_param {
	bias_term: true
  }
}
 layer {
  name: "res_4_3"
  type: "Eltwise"
  bottom: "res_4_2"
  bottom: "res_stage_4_3_3"
  top: "res_4_3"
  eltwise_param {
    operation: SUM
  }
}
layer {
  name: "res_4_3_relu"
  type: "ReLU"
  bottom: "res_4_3"
  top: "res_4_3"
}
layer {
  name: "pool5"
  type: "Pooling"
  bottom: "res_4_3"
  top: "pool5"
  pooling_param {
    pool: AVE
    kernel_size: 7
    stride: 1
  }
}
layer {
  name: "fc1000"
  type: "InnerProduct"
  bottom: "pool5"
  top: "fc1000"
  param {
    lr_mult: 1
    decay_mult: 1
  }
  param {
    lr_mult: 2
    decay_mult: 1
  }
  inner_product_param {
     num_output: 1000
     weight_filler {
       type: "msra"
     }
     bias_filler {
       type: "constant"
       value: 0
     }
  }
}
layer {
  name: "loss"
  type: "SoftmaxWithLoss"
  bottom: "fc1000"
  bottom: "label"
  top: "loss"
}

layer {
  name: "acc/top-1"
  type: "Accuracy"
  bottom: "fc1000"
  bottom: "label"
  top: "acc/top-1"
  include {
    phase: TEST
  }
}

layer {
  name: "acc/top-5"
  type: "Accuracy"
  bottom: "fc1000"
  bottom: "label"
  top: "acc/top-5"
  include {
    phase: TEST
  }
  accuracy_param {
    top_k: 5
  }
}
